{"format": "layers-model", "generatedBy": "keras v2.18.0", "convertedBy": "TensorFlow.js Converter v4.22.0", "modelTopology": {"keras_version": "2.18.0", "backend": "tensorflow", "model_config": {"class_name": "Functional", "config": {"name": "model_2", "trainable": true, "layers": [{"class_name": "InputLayer", "config": {"batch_input_shape": [null, 224, 224, 3], "dtype": "float32", "sparse": false, "ragged": false, "name": "input_3"}, "name": "input_3", "inbound_nodes": []}, {"class_name": "ZeroPadding2D", "config": {"name": "conv1_pad", "trainable": false, "dtype": "float32", "padding": [[3, 3], [3, 3]], "data_format": "channels_last"}, "name": "conv1_pad", "inbound_nodes": [[["input_3", 0, 0, {}]]]}, {"class_name": "Conv2D", "config": {"name": "conv1_conv", "trainable": false, "dtype": "float32", "filters": 64, "kernel_size": [7, 7], "strides": [2, 2], "padding": "valid", "data_format": "channels_last", "dilation_rate": [1, 1], "groups": 1, "activation": "linear", "use_bias": true, "kernel_initializer": {"module": "keras.initializers", "class_name": "GlorotUniform", "config": {"seed": null}, "registered_name": null}, "bias_initializer": {"module": "keras.initializers", "class_name": "Zeros", "config": {}, "registered_name": null}, "kernel_regularizer": null, "bias_regularizer": null, "activity_regularizer": null, "kernel_constraint": null, "bias_constraint": null}, "name": "conv1_conv", "inbound_nodes": [[["conv1_pad", 0, 0, {}]]]}, {"class_name": "ZeroPadding2D", "config": {"name": "pool1_pad", "trainable": false, "dtype": "float32", "padding": [[1, 1], [1, 1]], "data_format": "channels_last"}, "name": "pool1_pad", "inbound_nodes": [[["conv1_conv", 0, 0, {}]]]}, {"class_name": "MaxPooling2D", "config": {"name": "pool1_pool", "trainable": false, "dtype": "float32", "pool_size": [3, 3], "padding": "valid", "strides": [2, 2], "data_format": "channels_last"}, "name": "pool1_pool", "inbound_nodes": [[["pool1_pad", 0, 0, {}]]]}, {"class_name": "BatchNormalization", "config": {"name": "conv2_block1_preact_bn", "trainable": false, "dtype": "float32", "axis": [3], "momentum": 0.99, "epsilon": 1.001e-05, "center": true, "scale": true, "beta_initializer": {"module": "keras.initializers", "class_name": "Zeros", "config": {}, "registered_name": null}, "gamma_initializer": {"module": "keras.initializers", "class_name": "Ones", "config": {}, "registered_name": null}, "moving_mean_initializer": {"module": "keras.initializers", "class_name": "Zeros", "config": {}, "registered_name": null}, "moving_variance_initializer": {"module": "keras.initializers", "class_name": "Ones", "config": {}, "registered_name": null}, "beta_regularizer": null, "gamma_regularizer": null, "beta_constraint": null, "gamma_constraint": null}, "name": "conv2_block1_preact_bn", "inbound_nodes": [[["pool1_pool", 0, 0, {}]]]}, {"class_name": "Activation", "config": {"name": "conv2_block1_preact_relu", "trainable": false, "dtype": "float32", "activation": "relu"}, "name": "conv2_block1_preact_relu", "inbound_nodes": [[["conv2_block1_preact_bn", 0, 0, {}]]]}, {"class_name": "Conv2D", "config": {"name": "conv2_block1_1_conv", "trainable": false, "dtype": "float32", "filters": 64, "kernel_size": [1, 1], "strides": [1, 1], "padding": "valid", "data_format": "channels_last", "dilation_rate": [1, 1], "groups": 1, "activation": "linear", "use_bias": false, "kernel_initializer": {"module": "keras.initializers", "class_name": "GlorotUniform", "config": {"seed": null}, "registered_name": null}, "bias_initializer": {"module": "keras.initializers", "class_name": "Zeros", "config": {}, "registered_name": null}, "kernel_regularizer": null, "bias_regularizer": null, "activity_regularizer": null, "kernel_constraint": null, "bias_constraint": null}, "name": "conv2_block1_1_conv", "inbound_nodes": [[["conv2_block1_preact_relu", 0, 0, {}]]]}, {"class_name": "BatchNormalization", "config": {"name": "conv2_block1_1_bn", "trainable": false, "dtype": "float32", "axis": [3], "momentum": 0.99, "epsilon": 1.001e-05, "center": true, "scale": true, "beta_initializer": {"module": "keras.initializers", "class_name": "Zeros", "config": {}, "registered_name": null}, "gamma_initializer": {"module": "keras.initializers", "class_name": "Ones", "config": {}, "registered_name": null}, "moving_mean_initializer": {"module": "keras.initializers", "class_name": "Zeros", "config": {}, "registered_name": null}, "moving_variance_initializer": {"module": "keras.initializers", "class_name": "Ones", "config": {}, "registered_name": null}, "beta_regularizer": null, "gamma_regularizer": null, "beta_constraint": null, "gamma_constraint": null}, "name": "conv2_block1_1_bn", "inbound_nodes": [[["conv2_block1_1_conv", 0, 0, {}]]]}, {"class_name": "Activation", "config": {"name": "conv2_block1_1_relu", "trainable": false, "dtype": "float32", "activation": "relu"}, "name": "conv2_block1_1_relu", "inbound_nodes": [[["conv2_block1_1_bn", 0, 0, {}]]]}, {"class_name": "ZeroPadding2D", "config": {"name": "conv2_block1_2_pad", "trainable": false, "dtype": "float32", "padding": [[1, 1], [1, 1]], "data_format": "channels_last"}, "name": "conv2_block1_2_pad", "inbound_nodes": [[["conv2_block1_1_relu", 0, 0, {}]]]}, {"class_name": "Conv2D", "config": {"name": "conv2_block1_2_conv", "trainable": false, "dtype": "float32", "filters": 64, "kernel_size": [3, 3], "strides": [1, 1], "padding": "valid", "data_format": "channels_last", "dilation_rate": [1, 1], "groups": 1, "activation": "linear", "use_bias": false, "kernel_initializer": {"module": "keras.initializers", "class_name": "GlorotUniform", "config": {"seed": null}, "registered_name": null}, "bias_initializer": {"module": "keras.initializers", "class_name": "Zeros", "config": {}, "registered_name": null}, "kernel_regularizer": null, "bias_regularizer": null, "activity_regularizer": null, "kernel_constraint": null, "bias_constraint": null}, "name": "conv2_block1_2_conv", "inbound_nodes": [[["conv2_block1_2_pad", 0, 0, {}]]]}, {"class_name": "BatchNormalization", "config": {"name": "conv2_block1_2_bn", "trainable": false, "dtype": "float32", "axis": [3], "momentum": 0.99, "epsilon": 1.001e-05, "center": true, "scale": true, "beta_initializer": {"module": "keras.initializers", "class_name": "Zeros", "config": {}, "registered_name": null}, "gamma_initializer": {"module": "keras.initializers", "class_name": "Ones", "config": {}, "registered_name": null}, "moving_mean_initializer": {"module": "keras.initializers", "class_name": "Zeros", "config": {}, "registered_name": null}, "moving_variance_initializer": {"module": "keras.initializers", "class_name": "Ones", "config": {}, "registered_name": null}, "beta_regularizer": null, "gamma_regularizer": null, "beta_constraint": null, "gamma_constraint": null}, "name": "conv2_block1_2_bn", "inbound_nodes": [[["conv2_block1_2_conv", 0, 0, {}]]]}, {"class_name": "Activation", "config": {"name": "conv2_block1_2_relu", "trainable": false, "dtype": "float32", "activation": "relu"}, "name": "conv2_block1_2_relu", "inbound_nodes": [[["conv2_block1_2_bn", 0, 0, {}]]]}, {"class_name": "Conv2D", "config": {"name": "conv2_block1_0_conv", "trainable": false, "dtype": "float32", "filters": 256, "kernel_size": [1, 1], "strides": [1, 1], "padding": "valid", "data_format": "channels_last", "dilation_rate": [1, 1], "groups": 1, "activation": "linear", "use_bias": true, "kernel_initializer": {"module": "keras.initializers", "class_name": "GlorotUniform", "config": {"seed": null}, "registered_name": null}, "bias_initializer": {"module": "keras.initializers", "class_name": "Zeros", "config": {}, "registered_name": null}, "kernel_regularizer": null, "bias_regularizer": null, "activity_regularizer": null, "kernel_constraint": null, "bias_constraint": null}, "name": "conv2_block1_0_conv", "inbound_nodes": [[["conv2_block1_preact_relu", 0, 0, {}]]]}, {"class_name": "Conv2D", "config": {"name": "conv2_block1_3_conv", "trainable": false, "dtype": "float32", "filters": 256, "kernel_size": [1, 1], "strides": [1, 1], "padding": "valid", "data_format": "channels_last", "dilation_rate": [1, 1], "groups": 1, "activation": "linear", "use_bias": true, "kernel_initializer": {"module": "keras.initializers", "class_name": "GlorotUniform", "config": {"seed": null}, "registered_name": null}, "bias_initializer": {"module": "keras.initializers", "class_name": "Zeros", "config": {}, "registered_name": null}, "kernel_regularizer": null, "bias_regularizer": null, "activity_regularizer": null, "kernel_constraint": null, "bias_constraint": null}, "name": "conv2_block1_3_conv", "inbound_nodes": [[["conv2_block1_2_relu", 0, 0, {}]]]}, {"class_name": "Add", "config": {"name": "conv2_block1_out", "trainable": false, "dtype": "float32"}, "name": "conv2_block1_out", "inbound_nodes": [[["conv2_block1_0_conv", 0, 0, {}], ["conv2_block1_3_conv", 0, 0, {}]]]}, {"class_name": "BatchNormalization", "config": {"name": "conv2_block2_preact_bn", "trainable": false, "dtype": "float32", "axis": [3], "momentum": 0.99, "epsilon": 1.001e-05, "center": true, "scale": true, "beta_initializer": {"module": "keras.initializers", "class_name": "Zeros", "config": {}, "registered_name": null}, "gamma_initializer": {"module": "keras.initializers", "class_name": "Ones", "config": {}, "registered_name": null}, "moving_mean_initializer": {"module": "keras.initializers", "class_name": "Zeros", "config": {}, "registered_name": null}, "moving_variance_initializer": {"module": "keras.initializers", "class_name": "Ones", "config": {}, "registered_name": null}, "beta_regularizer": null, "gamma_regularizer": null, "beta_constraint": null, "gamma_constraint": null}, "name": "conv2_block2_preact_bn", "inbound_nodes": [[["conv2_block1_out", 0, 0, {}]]]}, {"class_name": "Activation", "config": {"name": "conv2_block2_preact_relu", "trainable": false, "dtype": "float32", "activation": "relu"}, "name": "conv2_block2_preact_relu", "inbound_nodes": [[["conv2_block2_preact_bn", 0, 0, {}]]]}, {"class_name": "Conv2D", "config": {"name": "conv2_block2_1_conv", "trainable": false, "dtype": "float32", "filters": 64, "kernel_size": [1, 1], "strides": [1, 1], "padding": "valid", "data_format": "channels_last", "dilation_rate": [1, 1], "groups": 1, "activation": "linear", "use_bias": false, "kernel_initializer": {"module": "keras.initializers", "class_name": "GlorotUniform", "config": {"seed": null}, "registered_name": null}, "bias_initializer": {"module": "keras.initializers", "class_name": "Zeros", "config": {}, "registered_name": null}, "kernel_regularizer": null, "bias_regularizer": null, "activity_regularizer": null, "kernel_constraint": null, "bias_constraint": null}, "name": "conv2_block2_1_conv", "inbound_nodes": [[["conv2_block2_preact_relu", 0, 0, {}]]]}, {"class_name": "BatchNormalization", "config": {"name": "conv2_block2_1_bn", "trainable": false, "dtype": "float32", "axis": [3], "momentum": 0.99, "epsilon": 1.001e-05, "center": true, "scale": true, "beta_initializer": {"module": "keras.initializers", "class_name": "Zeros", "config": {}, "registered_name": null}, "gamma_initializer": {"module": "keras.initializers", "class_name": "Ones", "config": {}, "registered_name": null}, "moving_mean_initializer": {"module": "keras.initializers", "class_name": "Zeros", "config": {}, "registered_name": null}, "moving_variance_initializer": {"module": "keras.initializers", "class_name": "Ones", "config": {}, "registered_name": null}, "beta_regularizer": null, "gamma_regularizer": null, "beta_constraint": null, "gamma_constraint": null}, "name": "conv2_block2_1_bn", "inbound_nodes": [[["conv2_block2_1_conv", 0, 0, {}]]]}, {"class_name": "Activation", "config": {"name": "conv2_block2_1_relu", "trainable": false, "dtype": "float32", "activation": "relu"}, "name": "conv2_block2_1_relu", "inbound_nodes": [[["conv2_block2_1_bn", 0, 0, {}]]]}, {"class_name": "ZeroPadding2D", "config": {"name": "conv2_block2_2_pad", "trainable": false, "dtype": "float32", "padding": [[1, 1], [1, 1]], "data_format": "channels_last"}, "name": "conv2_block2_2_pad", "inbound_nodes": [[["conv2_block2_1_relu", 0, 0, {}]]]}, {"class_name": "Conv2D", "config": {"name": "conv2_block2_2_conv", "trainable": false, "dtype": "float32", "filters": 64, "kernel_size": [3, 3], "strides": [1, 1], "padding": "valid", "data_format": "channels_last", "dilation_rate": [1, 1], "groups": 1, "activation": "linear", "use_bias": false, "kernel_initializer": {"module": "keras.initializers", "class_name": "GlorotUniform", "config": {"seed": null}, "registered_name": null}, "bias_initializer": {"module": "keras.initializers", "class_name": "Zeros", "config": {}, "registered_name": null}, "kernel_regularizer": null, "bias_regularizer": null, "activity_regularizer": null, "kernel_constraint": null, "bias_constraint": null}, "name": "conv2_block2_2_conv", "inbound_nodes": [[["conv2_block2_2_pad", 0, 0, {}]]]}, {"class_name": "BatchNormalization", "config": {"name": "conv2_block2_2_bn", "trainable": false, "dtype": "float32", "axis": [3], "momentum": 0.99, "epsilon": 1.001e-05, "center": true, "scale": true, "beta_initializer": {"module": "keras.initializers", "class_name": "Zeros", "config": {}, "registered_name": null}, "gamma_initializer": {"module": "keras.initializers", "class_name": "Ones", "config": {}, "registered_name": null}, "moving_mean_initializer": {"module": "keras.initializers", "class_name": "Zeros", "config": {}, "registered_name": null}, "moving_variance_initializer": {"module": "keras.initializers", "class_name": "Ones", "config": {}, "registered_name": null}, "beta_regularizer": null, "gamma_regularizer": null, "beta_constraint": null, "gamma_constraint": null}, "name": "conv2_block2_2_bn", "inbound_nodes": [[["conv2_block2_2_conv", 0, 0, {}]]]}, {"class_name": "Activation", "config": {"name": "conv2_block2_2_relu", "trainable": false, "dtype": "float32", "activation": "relu"}, "name": "conv2_block2_2_relu", "inbound_nodes": [[["conv2_block2_2_bn", 0, 0, {}]]]}, {"class_name": "Conv2D", "config": {"name": "conv2_block2_3_conv", "trainable": false, "dtype": "float32", "filters": 256, "kernel_size": [1, 1], "strides": [1, 1], "padding": "valid", "data_format": "channels_last", "dilation_rate": [1, 1], "groups": 1, "activation": "linear", "use_bias": true, "kernel_initializer": {"module": "keras.initializers", "class_name": "GlorotUniform", "config": {"seed": null}, "registered_name": null}, "bias_initializer": {"module": "keras.initializers", "class_name": "Zeros", "config": {}, "registered_name": null}, "kernel_regularizer": null, "bias_regularizer": null, "activity_regularizer": null, "kernel_constraint": null, "bias_constraint": null}, "name": "conv2_block2_3_conv", "inbound_nodes": [[["conv2_block2_2_relu", 0, 0, {}]]]}, {"class_name": "Add", "config": {"name": "conv2_block2_out", "trainable": false, "dtype": "float32"}, "name": "conv2_block2_out", "inbound_nodes": [[["conv2_block1_out", 0, 0, {}], ["conv2_block2_3_conv", 0, 0, {}]]]}, {"class_name": "BatchNormalization", "config": {"name": "conv2_block3_preact_bn", "trainable": false, "dtype": "float32", "axis": [3], "momentum": 0.99, "epsilon": 1.001e-05, "center": true, "scale": true, "beta_initializer": {"module": "keras.initializers", "class_name": "Zeros", "config": {}, "registered_name": null}, "gamma_initializer": {"module": "keras.initializers", "class_name": "Ones", "config": {}, "registered_name": null}, "moving_mean_initializer": {"module": "keras.initializers", "class_name": "Zeros", "config": {}, "registered_name": null}, "moving_variance_initializer": {"module": "keras.initializers", "class_name": "Ones", "config": {}, "registered_name": null}, "beta_regularizer": null, "gamma_regularizer": null, "beta_constraint": null, "gamma_constraint": null}, "name": "conv2_block3_preact_bn", "inbound_nodes": [[["conv2_block2_out", 0, 0, {}]]]}, {"class_name": "Activation", "config": {"name": "conv2_block3_preact_relu", "trainable": false, "dtype": "float32", "activation": "relu"}, "name": "conv2_block3_preact_relu", "inbound_nodes": [[["conv2_block3_preact_bn", 0, 0, {}]]]}, {"class_name": "Conv2D", "config": {"name": "conv2_block3_1_conv", "trainable": false, "dtype": "float32", "filters": 64, "kernel_size": [1, 1], "strides": [1, 1], "padding": "valid", "data_format": "channels_last", "dilation_rate": [1, 1], "groups": 1, "activation": "linear", "use_bias": false, "kernel_initializer": {"module": "keras.initializers", "class_name": "GlorotUniform", "config": {"seed": null}, "registered_name": null}, "bias_initializer": {"module": "keras.initializers", "class_name": "Zeros", "config": {}, "registered_name": null}, "kernel_regularizer": null, "bias_regularizer": null, "activity_regularizer": null, "kernel_constraint": null, "bias_constraint": null}, "name": "conv2_block3_1_conv", "inbound_nodes": [[["conv2_block3_preact_relu", 0, 0, {}]]]}, {"class_name": "BatchNormalization", "config": {"name": "conv2_block3_1_bn", "trainable": false, "dtype": "float32", "axis": [3], "momentum": 0.99, "epsilon": 1.001e-05, "center": true, "scale": true, "beta_initializer": {"module": "keras.initializers", "class_name": "Zeros", "config": {}, "registered_name": null}, "gamma_initializer": {"module": "keras.initializers", "class_name": "Ones", "config": {}, "registered_name": null}, "moving_mean_initializer": {"module": "keras.initializers", "class_name": "Zeros", "config": {}, "registered_name": null}, "moving_variance_initializer": {"module": "keras.initializers", "class_name": "Ones", "config": {}, "registered_name": null}, "beta_regularizer": null, "gamma_regularizer": null, "beta_constraint": null, "gamma_constraint": null}, "name": "conv2_block3_1_bn", "inbound_nodes": [[["conv2_block3_1_conv", 0, 0, {}]]]}, {"class_name": "Activation", "config": {"name": "conv2_block3_1_relu", "trainable": false, "dtype": "float32", "activation": "relu"}, "name": "conv2_block3_1_relu", "inbound_nodes": [[["conv2_block3_1_bn", 0, 0, {}]]]}, {"class_name": "ZeroPadding2D", "config": {"name": "conv2_block3_2_pad", "trainable": false, "dtype": "float32", "padding": [[1, 1], [1, 1]], "data_format": "channels_last"}, "name": "conv2_block3_2_pad", "inbound_nodes": [[["conv2_block3_1_relu", 0, 0, {}]]]}, {"class_name": "Conv2D", "config": {"name": "conv2_block3_2_conv", "trainable": false, "dtype": "float32", "filters": 64, "kernel_size": [3, 3], "strides": [2, 2], "padding": "valid", "data_format": "channels_last", "dilation_rate": [1, 1], "groups": 1, "activation": "linear", "use_bias": false, "kernel_initializer": {"module": "keras.initializers", "class_name": "GlorotUniform", "config": {"seed": null}, "registered_name": null}, "bias_initializer": {"module": "keras.initializers", "class_name": "Zeros", "config": {}, "registered_name": null}, "kernel_regularizer": null, "bias_regularizer": null, "activity_regularizer": null, "kernel_constraint": null, "bias_constraint": null}, "name": "conv2_block3_2_conv", "inbound_nodes": [[["conv2_block3_2_pad", 0, 0, {}]]]}, {"class_name": "BatchNormalization", "config": {"name": "conv2_block3_2_bn", "trainable": false, "dtype": "float32", "axis": [3], "momentum": 0.99, "epsilon": 1.001e-05, "center": true, "scale": true, "beta_initializer": {"module": "keras.initializers", "class_name": "Zeros", "config": {}, "registered_name": null}, "gamma_initializer": {"module": "keras.initializers", "class_name": "Ones", "config": {}, "registered_name": null}, "moving_mean_initializer": {"module": "keras.initializers", "class_name": "Zeros", "config": {}, "registered_name": null}, "moving_variance_initializer": {"module": "keras.initializers", "class_name": "Ones", "config": {}, "registered_name": null}, "beta_regularizer": null, "gamma_regularizer": null, "beta_constraint": null, "gamma_constraint": null}, "name": "conv2_block3_2_bn", "inbound_nodes": [[["conv2_block3_2_conv", 0, 0, {}]]]}, {"class_name": "Activation", "config": {"name": "conv2_block3_2_relu", "trainable": false, "dtype": "float32", "activation": "relu"}, "name": "conv2_block3_2_relu", "inbound_nodes": [[["conv2_block3_2_bn", 0, 0, {}]]]}, {"class_name": "MaxPooling2D", "config": {"name": "max_pooling2d_6", "trainable": false, "dtype": "float32", "pool_size": [1, 1], "padding": "valid", "strides": [2, 2], "data_format": "channels_last"}, "name": "max_pooling2d_6", "inbound_nodes": [[["conv2_block2_out", 0, 0, {}]]]}, {"class_name": "Conv2D", "config": {"name": "conv2_block3_3_conv", "trainable": false, "dtype": "float32", "filters": 256, "kernel_size": [1, 1], "strides": [1, 1], "padding": "valid", "data_format": "channels_last", "dilation_rate": [1, 1], "groups": 1, "activation": "linear", "use_bias": true, "kernel_initializer": {"module": "keras.initializers", "class_name": "GlorotUniform", "config": {"seed": null}, "registered_name": null}, "bias_initializer": {"module": "keras.initializers", "class_name": "Zeros", "config": {}, "registered_name": null}, "kernel_regularizer": null, "bias_regularizer": null, "activity_regularizer": null, "kernel_constraint": null, "bias_constraint": null}, "name": "conv2_block3_3_conv", "inbound_nodes": [[["conv2_block3_2_relu", 0, 0, {}]]]}, {"class_name": "Add", "config": {"name": "conv2_block3_out", "trainable": false, "dtype": "float32"}, "name": "conv2_block3_out", "inbound_nodes": [[["max_pooling2d_6", 0, 0, {}], ["conv2_block3_3_conv", 0, 0, {}]]]}, {"class_name": "BatchNormalization", "config": {"name": "conv3_block1_preact_bn", "trainable": false, "dtype": "float32", "axis": [3], "momentum": 0.99, "epsilon": 1.001e-05, "center": true, "scale": true, "beta_initializer": {"module": "keras.initializers", "class_name": "Zeros", "config": {}, "registered_name": null}, "gamma_initializer": {"module": "keras.initializers", "class_name": "Ones", "config": {}, "registered_name": null}, "moving_mean_initializer": {"module": "keras.initializers", "class_name": "Zeros", "config": {}, "registered_name": null}, "moving_variance_initializer": {"module": "keras.initializers", "class_name": "Ones", "config": {}, "registered_name": null}, "beta_regularizer": null, "gamma_regularizer": null, "beta_constraint": null, "gamma_constraint": null}, "name": "conv3_block1_preact_bn", "inbound_nodes": [[["conv2_block3_out", 0, 0, {}]]]}, {"class_name": "Activation", "config": {"name": "conv3_block1_preact_relu", "trainable": false, "dtype": "float32", "activation": "relu"}, "name": "conv3_block1_preact_relu", "inbound_nodes": [[["conv3_block1_preact_bn", 0, 0, {}]]]}, {"class_name": "Conv2D", "config": {"name": "conv3_block1_1_conv", "trainable": false, "dtype": "float32", "filters": 128, "kernel_size": [1, 1], "strides": [1, 1], "padding": "valid", "data_format": "channels_last", "dilation_rate": [1, 1], "groups": 1, "activation": "linear", "use_bias": false, "kernel_initializer": {"module": "keras.initializers", "class_name": "GlorotUniform", "config": {"seed": null}, "registered_name": null}, "bias_initializer": {"module": "keras.initializers", "class_name": "Zeros", "config": {}, "registered_name": null}, "kernel_regularizer": null, "bias_regularizer": null, "activity_regularizer": null, "kernel_constraint": null, "bias_constraint": null}, "name": "conv3_block1_1_conv", "inbound_nodes": [[["conv3_block1_preact_relu", 0, 0, {}]]]}, {"class_name": "BatchNormalization", "config": {"name": "conv3_block1_1_bn", "trainable": false, "dtype": "float32", "axis": [3], "momentum": 0.99, "epsilon": 1.001e-05, "center": true, "scale": true, "beta_initializer": {"module": "keras.initializers", "class_name": "Zeros", "config": {}, "registered_name": null}, "gamma_initializer": {"module": "keras.initializers", "class_name": "Ones", "config": {}, "registered_name": null}, "moving_mean_initializer": {"module": "keras.initializers", "class_name": "Zeros", "config": {}, "registered_name": null}, "moving_variance_initializer": {"module": "keras.initializers", "class_name": "Ones", "config": {}, "registered_name": null}, "beta_regularizer": null, "gamma_regularizer": null, "beta_constraint": null, "gamma_constraint": null}, "name": "conv3_block1_1_bn", "inbound_nodes": [[["conv3_block1_1_conv", 0, 0, {}]]]}, {"class_name": "Activation", "config": {"name": "conv3_block1_1_relu", "trainable": false, "dtype": "float32", "activation": "relu"}, "name": "conv3_block1_1_relu", "inbound_nodes": [[["conv3_block1_1_bn", 0, 0, {}]]]}, {"class_name": "ZeroPadding2D", "config": {"name": "conv3_block1_2_pad", "trainable": false, "dtype": "float32", "padding": [[1, 1], [1, 1]], "data_format": "channels_last"}, "name": "conv3_block1_2_pad", "inbound_nodes": [[["conv3_block1_1_relu", 0, 0, {}]]]}, {"class_name": "Conv2D", "config": {"name": "conv3_block1_2_conv", "trainable": false, "dtype": "float32", "filters": 128, "kernel_size": [3, 3], "strides": [1, 1], "padding": "valid", "data_format": "channels_last", "dilation_rate": [1, 1], "groups": 1, "activation": "linear", "use_bias": false, "kernel_initializer": {"module": "keras.initializers", "class_name": "GlorotUniform", "config": {"seed": null}, "registered_name": null}, "bias_initializer": {"module": "keras.initializers", "class_name": "Zeros", "config": {}, "registered_name": null}, "kernel_regularizer": null, "bias_regularizer": null, "activity_regularizer": null, "kernel_constraint": null, "bias_constraint": null}, "name": "conv3_block1_2_conv", "inbound_nodes": [[["conv3_block1_2_pad", 0, 0, {}]]]}, {"class_name": "BatchNormalization", "config": {"name": "conv3_block1_2_bn", "trainable": false, "dtype": "float32", "axis": [3], "momentum": 0.99, "epsilon": 1.001e-05, "center": true, "scale": true, "beta_initializer": {"module": "keras.initializers", "class_name": "Zeros", "config": {}, "registered_name": null}, "gamma_initializer": {"module": "keras.initializers", "class_name": "Ones", "config": {}, "registered_name": null}, "moving_mean_initializer": {"module": "keras.initializers", "class_name": "Zeros", "config": {}, "registered_name": null}, "moving_variance_initializer": {"module": "keras.initializers", "class_name": "Ones", "config": {}, "registered_name": null}, "beta_regularizer": null, "gamma_regularizer": null, "beta_constraint": null, "gamma_constraint": null}, "name": "conv3_block1_2_bn", "inbound_nodes": [[["conv3_block1_2_conv", 0, 0, {}]]]}, {"class_name": "Activation", "config": {"name": "conv3_block1_2_relu", "trainable": false, "dtype": "float32", "activation": "relu"}, "name": "conv3_block1_2_relu", "inbound_nodes": [[["conv3_block1_2_bn", 0, 0, {}]]]}, {"class_name": "Conv2D", "config": {"name": "conv3_block1_0_conv", "trainable": false, "dtype": "float32", "filters": 512, "kernel_size": [1, 1], "strides": [1, 1], "padding": "valid", "data_format": "channels_last", "dilation_rate": [1, 1], "groups": 1, "activation": "linear", "use_bias": true, "kernel_initializer": {"module": "keras.initializers", "class_name": "GlorotUniform", "config": {"seed": null}, "registered_name": null}, "bias_initializer": {"module": "keras.initializers", "class_name": "Zeros", "config": {}, "registered_name": null}, "kernel_regularizer": null, "bias_regularizer": null, "activity_regularizer": null, "kernel_constraint": null, "bias_constraint": null}, "name": "conv3_block1_0_conv", "inbound_nodes": [[["conv3_block1_preact_relu", 0, 0, {}]]]}, {"class_name": "Conv2D", "config": {"name": "conv3_block1_3_conv", "trainable": false, "dtype": "float32", "filters": 512, "kernel_size": [1, 1], "strides": [1, 1], "padding": "valid", "data_format": "channels_last", "dilation_rate": [1, 1], "groups": 1, "activation": "linear", "use_bias": true, "kernel_initializer": {"module": "keras.initializers", "class_name": "GlorotUniform", "config": {"seed": null}, "registered_name": null}, "bias_initializer": {"module": "keras.initializers", "class_name": "Zeros", "config": {}, "registered_name": null}, "kernel_regularizer": null, "bias_regularizer": null, "activity_regularizer": null, "kernel_constraint": null, "bias_constraint": null}, "name": "conv3_block1_3_conv", "inbound_nodes": [[["conv3_block1_2_relu", 0, 0, {}]]]}, {"class_name": "Add", "config": {"name": "conv3_block1_out", "trainable": false, "dtype": "float32"}, "name": "conv3_block1_out", "inbound_nodes": [[["conv3_block1_0_conv", 0, 0, {}], ["conv3_block1_3_conv", 0, 0, {}]]]}, {"class_name": "BatchNormalization", "config": {"name": "conv3_block2_preact_bn", "trainable": false, "dtype": "float32", "axis": [3], "momentum": 0.99, "epsilon": 1.001e-05, "center": true, "scale": true, "beta_initializer": {"module": "keras.initializers", "class_name": "Zeros", "config": {}, "registered_name": null}, "gamma_initializer": {"module": "keras.initializers", "class_name": "Ones", "config": {}, "registered_name": null}, "moving_mean_initializer": {"module": "keras.initializers", "class_name": "Zeros", "config": {}, "registered_name": null}, "moving_variance_initializer": {"module": "keras.initializers", "class_name": "Ones", "config": {}, "registered_name": null}, "beta_regularizer": null, "gamma_regularizer": null, "beta_constraint": null, "gamma_constraint": null}, "name": "conv3_block2_preact_bn", "inbound_nodes": [[["conv3_block1_out", 0, 0, {}]]]}, {"class_name": "Activation", "config": {"name": "conv3_block2_preact_relu", "trainable": false, "dtype": "float32", "activation": "relu"}, "name": "conv3_block2_preact_relu", "inbound_nodes": [[["conv3_block2_preact_bn", 0, 0, {}]]]}, {"class_name": "Conv2D", "config": {"name": "conv3_block2_1_conv", "trainable": false, "dtype": "float32", "filters": 128, "kernel_size": [1, 1], "strides": [1, 1], "padding": "valid", "data_format": "channels_last", "dilation_rate": [1, 1], "groups": 1, "activation": "linear", "use_bias": false, "kernel_initializer": {"module": "keras.initializers", "class_name": "GlorotUniform", "config": {"seed": null}, "registered_name": null}, "bias_initializer": {"module": "keras.initializers", "class_name": "Zeros", "config": {}, "registered_name": null}, "kernel_regularizer": null, "bias_regularizer": null, "activity_regularizer": null, "kernel_constraint": null, "bias_constraint": null}, "name": "conv3_block2_1_conv", "inbound_nodes": [[["conv3_block2_preact_relu", 0, 0, {}]]]}, {"class_name": "BatchNormalization", "config": {"name": "conv3_block2_1_bn", "trainable": false, "dtype": "float32", "axis": [3], "momentum": 0.99, "epsilon": 1.001e-05, "center": true, "scale": true, "beta_initializer": {"module": "keras.initializers", "class_name": "Zeros", "config": {}, "registered_name": null}, "gamma_initializer": {"module": "keras.initializers", "class_name": "Ones", "config": {}, "registered_name": null}, "moving_mean_initializer": {"module": "keras.initializers", "class_name": "Zeros", "config": {}, "registered_name": null}, "moving_variance_initializer": {"module": "keras.initializers", "class_name": "Ones", "config": {}, "registered_name": null}, "beta_regularizer": null, "gamma_regularizer": null, "beta_constraint": null, "gamma_constraint": null}, "name": "conv3_block2_1_bn", "inbound_nodes": [[["conv3_block2_1_conv", 0, 0, {}]]]}, {"class_name": "Activation", "config": {"name": "conv3_block2_1_relu", "trainable": false, "dtype": "float32", "activation": "relu"}, "name": "conv3_block2_1_relu", "inbound_nodes": [[["conv3_block2_1_bn", 0, 0, {}]]]}, {"class_name": "ZeroPadding2D", "config": {"name": "conv3_block2_2_pad", "trainable": false, "dtype": "float32", "padding": [[1, 1], [1, 1]], "data_format": "channels_last"}, "name": "conv3_block2_2_pad", "inbound_nodes": [[["conv3_block2_1_relu", 0, 0, {}]]]}, {"class_name": "Conv2D", "config": {"name": "conv3_block2_2_conv", "trainable": false, "dtype": "float32", "filters": 128, "kernel_size": [3, 3], "strides": [1, 1], "padding": "valid", "data_format": "channels_last", "dilation_rate": [1, 1], "groups": 1, "activation": "linear", "use_bias": false, "kernel_initializer": {"module": "keras.initializers", "class_name": "GlorotUniform", "config": {"seed": null}, "registered_name": null}, "bias_initializer": {"module": "keras.initializers", "class_name": "Zeros", "config": {}, "registered_name": null}, "kernel_regularizer": null, "bias_regularizer": null, "activity_regularizer": null, "kernel_constraint": null, "bias_constraint": null}, "name": "conv3_block2_2_conv", "inbound_nodes": [[["conv3_block2_2_pad", 0, 0, {}]]]}, {"class_name": "BatchNormalization", "config": {"name": "conv3_block2_2_bn", "trainable": false, "dtype": "float32", "axis": [3], "momentum": 0.99, "epsilon": 1.001e-05, "center": true, "scale": true, "beta_initializer": {"module": "keras.initializers", "class_name": "Zeros", "config": {}, "registered_name": null}, "gamma_initializer": {"module": "keras.initializers", "class_name": "Ones", "config": {}, "registered_name": null}, "moving_mean_initializer": {"module": "keras.initializers", "class_name": "Zeros", "config": {}, "registered_name": null}, "moving_variance_initializer": {"module": "keras.initializers", "class_name": "Ones", "config": {}, "registered_name": null}, "beta_regularizer": null, "gamma_regularizer": null, "beta_constraint": null, "gamma_constraint": null}, "name": "conv3_block2_2_bn", "inbound_nodes": [[["conv3_block2_2_conv", 0, 0, {}]]]}, {"class_name": "Activation", "config": {"name": "conv3_block2_2_relu", "trainable": false, "dtype": "float32", "activation": "relu"}, "name": "conv3_block2_2_relu", "inbound_nodes": [[["conv3_block2_2_bn", 0, 0, {}]]]}, {"class_name": "Conv2D", "config": {"name": "conv3_block2_3_conv", "trainable": false, "dtype": "float32", "filters": 512, "kernel_size": [1, 1], "strides": [1, 1], "padding": "valid", "data_format": "channels_last", "dilation_rate": [1, 1], "groups": 1, "activation": "linear", "use_bias": true, "kernel_initializer": {"module": "keras.initializers", "class_name": "GlorotUniform", "config": {"seed": null}, "registered_name": null}, "bias_initializer": {"module": "keras.initializers", "class_name": "Zeros", "config": {}, "registered_name": null}, "kernel_regularizer": null, "bias_regularizer": null, "activity_regularizer": null, "kernel_constraint": null, "bias_constraint": null}, "name": "conv3_block2_3_conv", "inbound_nodes": [[["conv3_block2_2_relu", 0, 0, {}]]]}, {"class_name": "Add", "config": {"name": "conv3_block2_out", "trainable": false, "dtype": "float32"}, "name": "conv3_block2_out", "inbound_nodes": [[["conv3_block1_out", 0, 0, {}], ["conv3_block2_3_conv", 0, 0, {}]]]}, {"class_name": "BatchNormalization", "config": {"name": "conv3_block3_preact_bn", "trainable": false, "dtype": "float32", "axis": [3], "momentum": 0.99, "epsilon": 1.001e-05, "center": true, "scale": true, "beta_initializer": {"module": "keras.initializers", "class_name": "Zeros", "config": {}, "registered_name": null}, "gamma_initializer": {"module": "keras.initializers", "class_name": "Ones", "config": {}, "registered_name": null}, "moving_mean_initializer": {"module": "keras.initializers", "class_name": "Zeros", "config": {}, "registered_name": null}, "moving_variance_initializer": {"module": "keras.initializers", "class_name": "Ones", "config": {}, "registered_name": null}, "beta_regularizer": null, "gamma_regularizer": null, "beta_constraint": null, "gamma_constraint": null}, "name": "conv3_block3_preact_bn", "inbound_nodes": [[["conv3_block2_out", 0, 0, {}]]]}, {"class_name": "Activation", "config": {"name": "conv3_block3_preact_relu", "trainable": false, "dtype": "float32", "activation": "relu"}, "name": "conv3_block3_preact_relu", "inbound_nodes": [[["conv3_block3_preact_bn", 0, 0, {}]]]}, {"class_name": "Conv2D", "config": {"name": "conv3_block3_1_conv", "trainable": false, "dtype": "float32", "filters": 128, "kernel_size": [1, 1], "strides": [1, 1], "padding": "valid", "data_format": "channels_last", "dilation_rate": [1, 1], "groups": 1, "activation": "linear", "use_bias": false, "kernel_initializer": {"module": "keras.initializers", "class_name": "GlorotUniform", "config": {"seed": null}, "registered_name": null}, "bias_initializer": {"module": "keras.initializers", "class_name": "Zeros", "config": {}, "registered_name": null}, "kernel_regularizer": null, "bias_regularizer": null, "activity_regularizer": null, "kernel_constraint": null, "bias_constraint": null}, "name": "conv3_block3_1_conv", "inbound_nodes": [[["conv3_block3_preact_relu", 0, 0, {}]]]}, {"class_name": "BatchNormalization", "config": {"name": "conv3_block3_1_bn", "trainable": false, "dtype": "float32", "axis": [3], "momentum": 0.99, "epsilon": 1.001e-05, "center": true, "scale": true, "beta_initializer": {"module": "keras.initializers", "class_name": "Zeros", "config": {}, "registered_name": null}, "gamma_initializer": {"module": "keras.initializers", "class_name": "Ones", "config": {}, "registered_name": null}, "moving_mean_initializer": {"module": "keras.initializers", "class_name": "Zeros", "config": {}, "registered_name": null}, "moving_variance_initializer": {"module": "keras.initializers", "class_name": "Ones", "config": {}, "registered_name": null}, "beta_regularizer": null, "gamma_regularizer": null, "beta_constraint": null, "gamma_constraint": null}, "name": "conv3_block3_1_bn", "inbound_nodes": [[["conv3_block3_1_conv", 0, 0, {}]]]}, {"class_name": "Activation", "config": {"name": "conv3_block3_1_relu", "trainable": false, "dtype": "float32", "activation": "relu"}, "name": "conv3_block3_1_relu", "inbound_nodes": [[["conv3_block3_1_bn", 0, 0, {}]]]}, {"class_name": "ZeroPadding2D", "config": {"name": "conv3_block3_2_pad", "trainable": false, "dtype": "float32", "padding": [[1, 1], [1, 1]], "data_format": "channels_last"}, "name": "conv3_block3_2_pad", "inbound_nodes": [[["conv3_block3_1_relu", 0, 0, {}]]]}, {"class_name": "Conv2D", "config": {"name": "conv3_block3_2_conv", "trainable": false, "dtype": "float32", "filters": 128, "kernel_size": [3, 3], "strides": [1, 1], "padding": "valid", "data_format": "channels_last", "dilation_rate": [1, 1], "groups": 1, "activation": "linear", "use_bias": false, "kernel_initializer": {"module": "keras.initializers", "class_name": "GlorotUniform", "config": {"seed": null}, "registered_name": null}, "bias_initializer": {"module": "keras.initializers", "class_name": "Zeros", "config": {}, "registered_name": null}, "kernel_regularizer": null, "bias_regularizer": null, "activity_regularizer": null, "kernel_constraint": null, "bias_constraint": null}, "name": "conv3_block3_2_conv", "inbound_nodes": [[["conv3_block3_2_pad", 0, 0, {}]]]}, {"class_name": "BatchNormalization", "config": {"name": "conv3_block3_2_bn", "trainable": false, "dtype": "float32", "axis": [3], "momentum": 0.99, "epsilon": 1.001e-05, "center": true, "scale": true, "beta_initializer": {"module": "keras.initializers", "class_name": "Zeros", "config": {}, "registered_name": null}, "gamma_initializer": {"module": "keras.initializers", "class_name": "Ones", "config": {}, "registered_name": null}, "moving_mean_initializer": {"module": "keras.initializers", "class_name": "Zeros", "config": {}, "registered_name": null}, "moving_variance_initializer": {"module": "keras.initializers", "class_name": "Ones", "config": {}, "registered_name": null}, "beta_regularizer": null, "gamma_regularizer": null, "beta_constraint": null, "gamma_constraint": null}, "name": "conv3_block3_2_bn", "inbound_nodes": [[["conv3_block3_2_conv", 0, 0, {}]]]}, {"class_name": "Activation", "config": {"name": "conv3_block3_2_relu", "trainable": false, "dtype": "float32", "activation": "relu"}, "name": "conv3_block3_2_relu", "inbound_nodes": [[["conv3_block3_2_bn", 0, 0, {}]]]}, {"class_name": "Conv2D", "config": {"name": "conv3_block3_3_conv", "trainable": false, "dtype": "float32", "filters": 512, "kernel_size": [1, 1], "strides": [1, 1], "padding": "valid", "data_format": "channels_last", "dilation_rate": [1, 1], "groups": 1, "activation": "linear", "use_bias": true, "kernel_initializer": {"module": "keras.initializers", "class_name": "GlorotUniform", "config": {"seed": null}, "registered_name": null}, "bias_initializer": {"module": "keras.initializers", "class_name": "Zeros", "config": {}, "registered_name": null}, "kernel_regularizer": null, "bias_regularizer": null, "activity_regularizer": null, "kernel_constraint": null, "bias_constraint": null}, "name": "conv3_block3_3_conv", "inbound_nodes": [[["conv3_block3_2_relu", 0, 0, {}]]]}, {"class_name": "Add", "config": {"name": "conv3_block3_out", "trainable": false, "dtype": "float32"}, "name": "conv3_block3_out", "inbound_nodes": [[["conv3_block2_out", 0, 0, {}], ["conv3_block3_3_conv", 0, 0, {}]]]}, {"class_name": "BatchNormalization", "config": {"name": "conv3_block4_preact_bn", "trainable": false, "dtype": "float32", "axis": [3], "momentum": 0.99, "epsilon": 1.001e-05, "center": true, "scale": true, "beta_initializer": {"module": "keras.initializers", "class_name": "Zeros", "config": {}, "registered_name": null}, "gamma_initializer": {"module": "keras.initializers", "class_name": "Ones", "config": {}, "registered_name": null}, "moving_mean_initializer": {"module": "keras.initializers", "class_name": "Zeros", "config": {}, "registered_name": null}, "moving_variance_initializer": {"module": "keras.initializers", "class_name": "Ones", "config": {}, "registered_name": null}, "beta_regularizer": null, "gamma_regularizer": null, "beta_constraint": null, "gamma_constraint": null}, "name": "conv3_block4_preact_bn", "inbound_nodes": [[["conv3_block3_out", 0, 0, {}]]]}, {"class_name": "Activation", "config": {"name": "conv3_block4_preact_relu", "trainable": false, "dtype": "float32", "activation": "relu"}, "name": "conv3_block4_preact_relu", "inbound_nodes": [[["conv3_block4_preact_bn", 0, 0, {}]]]}, {"class_name": "Conv2D", "config": {"name": "conv3_block4_1_conv", "trainable": false, "dtype": "float32", "filters": 128, "kernel_size": [1, 1], "strides": [1, 1], "padding": "valid", "data_format": "channels_last", "dilation_rate": [1, 1], "groups": 1, "activation": "linear", "use_bias": false, "kernel_initializer": {"module": "keras.initializers", "class_name": "GlorotUniform", "config": {"seed": null}, "registered_name": null}, "bias_initializer": {"module": "keras.initializers", "class_name": "Zeros", "config": {}, "registered_name": null}, "kernel_regularizer": null, "bias_regularizer": null, "activity_regularizer": null, "kernel_constraint": null, "bias_constraint": null}, "name": "conv3_block4_1_conv", "inbound_nodes": [[["conv3_block4_preact_relu", 0, 0, {}]]]}, {"class_name": "BatchNormalization", "config": {"name": "conv3_block4_1_bn", "trainable": false, "dtype": "float32", "axis": [3], "momentum": 0.99, "epsilon": 1.001e-05, "center": true, "scale": true, "beta_initializer": {"module": "keras.initializers", "class_name": "Zeros", "config": {}, "registered_name": null}, "gamma_initializer": {"module": "keras.initializers", "class_name": "Ones", "config": {}, "registered_name": null}, "moving_mean_initializer": {"module": "keras.initializers", "class_name": "Zeros", "config": {}, "registered_name": null}, "moving_variance_initializer": {"module": "keras.initializers", "class_name": "Ones", "config": {}, "registered_name": null}, "beta_regularizer": null, "gamma_regularizer": null, "beta_constraint": null, "gamma_constraint": null}, "name": "conv3_block4_1_bn", "inbound_nodes": [[["conv3_block4_1_conv", 0, 0, {}]]]}, {"class_name": "Activation", "config": {"name": "conv3_block4_1_relu", "trainable": false, "dtype": "float32", "activation": "relu"}, "name": "conv3_block4_1_relu", "inbound_nodes": [[["conv3_block4_1_bn", 0, 0, {}]]]}, {"class_name": "ZeroPadding2D", "config": {"name": "conv3_block4_2_pad", "trainable": false, "dtype": "float32", "padding": [[1, 1], [1, 1]], "data_format": "channels_last"}, "name": "conv3_block4_2_pad", "inbound_nodes": [[["conv3_block4_1_relu", 0, 0, {}]]]}, {"class_name": "Conv2D", "config": {"name": "conv3_block4_2_conv", "trainable": false, "dtype": "float32", "filters": 128, "kernel_size": [3, 3], "strides": [1, 1], "padding": "valid", "data_format": "channels_last", "dilation_rate": [1, 1], "groups": 1, "activation": "linear", "use_bias": false, "kernel_initializer": {"module": "keras.initializers", "class_name": "GlorotUniform", "config": {"seed": null}, "registered_name": null}, "bias_initializer": {"module": "keras.initializers", "class_name": "Zeros", "config": {}, "registered_name": null}, "kernel_regularizer": null, "bias_regularizer": null, "activity_regularizer": null, "kernel_constraint": null, "bias_constraint": null}, "name": "conv3_block4_2_conv", "inbound_nodes": [[["conv3_block4_2_pad", 0, 0, {}]]]}, {"class_name": "BatchNormalization", "config": {"name": "conv3_block4_2_bn", "trainable": false, "dtype": "float32", "axis": [3], "momentum": 0.99, "epsilon": 1.001e-05, "center": true, "scale": true, "beta_initializer": {"module": "keras.initializers", "class_name": "Zeros", "config": {}, "registered_name": null}, "gamma_initializer": {"module": "keras.initializers", "class_name": "Ones", "config": {}, "registered_name": null}, "moving_mean_initializer": {"module": "keras.initializers", "class_name": "Zeros", "config": {}, "registered_name": null}, "moving_variance_initializer": {"module": "keras.initializers", "class_name": "Ones", "config": {}, "registered_name": null}, "beta_regularizer": null, "gamma_regularizer": null, "beta_constraint": null, "gamma_constraint": null}, "name": "conv3_block4_2_bn", "inbound_nodes": [[["conv3_block4_2_conv", 0, 0, {}]]]}, {"class_name": "Activation", "config": {"name": "conv3_block4_2_relu", "trainable": false, "dtype": "float32", "activation": "relu"}, "name": "conv3_block4_2_relu", "inbound_nodes": [[["conv3_block4_2_bn", 0, 0, {}]]]}, {"class_name": "Conv2D", "config": {"name": "conv3_block4_3_conv", "trainable": false, "dtype": "float32", "filters": 512, "kernel_size": [1, 1], "strides": [1, 1], "padding": "valid", "data_format": "channels_last", "dilation_rate": [1, 1], "groups": 1, "activation": "linear", "use_bias": true, "kernel_initializer": {"module": "keras.initializers", "class_name": "GlorotUniform", "config": {"seed": null}, "registered_name": null}, "bias_initializer": {"module": "keras.initializers", "class_name": "Zeros", "config": {}, "registered_name": null}, "kernel_regularizer": null, "bias_regularizer": null, "activity_regularizer": null, "kernel_constraint": null, "bias_constraint": null}, "name": "conv3_block4_3_conv", "inbound_nodes": [[["conv3_block4_2_relu", 0, 0, {}]]]}, {"class_name": "Add", "config": {"name": "conv3_block4_out", "trainable": false, "dtype": "float32"}, "name": "conv3_block4_out", "inbound_nodes": [[["conv3_block3_out", 0, 0, {}], ["conv3_block4_3_conv", 0, 0, {}]]]}, {"class_name": "BatchNormalization", "config": {"name": "conv3_block5_preact_bn", "trainable": false, "dtype": "float32", "axis": [3], "momentum": 0.99, "epsilon": 1.001e-05, "center": true, "scale": true, "beta_initializer": {"module": "keras.initializers", "class_name": "Zeros", "config": {}, "registered_name": null}, "gamma_initializer": {"module": "keras.initializers", "class_name": "Ones", "config": {}, "registered_name": null}, "moving_mean_initializer": {"module": "keras.initializers", "class_name": "Zeros", "config": {}, "registered_name": null}, "moving_variance_initializer": {"module": "keras.initializers", "class_name": "Ones", "config": {}, "registered_name": null}, "beta_regularizer": null, "gamma_regularizer": null, "beta_constraint": null, "gamma_constraint": null}, "name": "conv3_block5_preact_bn", "inbound_nodes": [[["conv3_block4_out", 0, 0, {}]]]}, {"class_name": "Activation", "config": {"name": "conv3_block5_preact_relu", "trainable": false, "dtype": "float32", "activation": "relu"}, "name": "conv3_block5_preact_relu", "inbound_nodes": [[["conv3_block5_preact_bn", 0, 0, {}]]]}, {"class_name": "Conv2D", "config": {"name": "conv3_block5_1_conv", "trainable": false, "dtype": "float32", "filters": 128, "kernel_size": [1, 1], "strides": [1, 1], "padding": "valid", "data_format": "channels_last", "dilation_rate": [1, 1], "groups": 1, "activation": "linear", "use_bias": false, "kernel_initializer": {"module": "keras.initializers", "class_name": "GlorotUniform", "config": {"seed": null}, "registered_name": null}, "bias_initializer": {"module": "keras.initializers", "class_name": "Zeros", "config": {}, "registered_name": null}, "kernel_regularizer": null, "bias_regularizer": null, "activity_regularizer": null, "kernel_constraint": null, "bias_constraint": null}, "name": "conv3_block5_1_conv", "inbound_nodes": [[["conv3_block5_preact_relu", 0, 0, {}]]]}, {"class_name": "BatchNormalization", "config": {"name": "conv3_block5_1_bn", "trainable": false, "dtype": "float32", "axis": [3], "momentum": 0.99, "epsilon": 1.001e-05, "center": true, "scale": true, "beta_initializer": {"module": "keras.initializers", "class_name": "Zeros", "config": {}, "registered_name": null}, "gamma_initializer": {"module": "keras.initializers", "class_name": "Ones", "config": {}, "registered_name": null}, "moving_mean_initializer": {"module": "keras.initializers", "class_name": "Zeros", "config": {}, "registered_name": null}, "moving_variance_initializer": {"module": "keras.initializers", "class_name": "Ones", "config": {}, "registered_name": null}, "beta_regularizer": null, "gamma_regularizer": null, "beta_constraint": null, "gamma_constraint": null}, "name": "conv3_block5_1_bn", "inbound_nodes": [[["conv3_block5_1_conv", 0, 0, {}]]]}, {"class_name": "Activation", "config": {"name": "conv3_block5_1_relu", "trainable": false, "dtype": "float32", "activation": "relu"}, "name": "conv3_block5_1_relu", "inbound_nodes": [[["conv3_block5_1_bn", 0, 0, {}]]]}, {"class_name": "ZeroPadding2D", "config": {"name": "conv3_block5_2_pad", "trainable": false, "dtype": "float32", "padding": [[1, 1], [1, 1]], "data_format": "channels_last"}, "name": "conv3_block5_2_pad", "inbound_nodes": [[["conv3_block5_1_relu", 0, 0, {}]]]}, {"class_name": "Conv2D", "config": {"name": "conv3_block5_2_conv", "trainable": false, "dtype": "float32", "filters": 128, "kernel_size": [3, 3], "strides": [1, 1], "padding": "valid", "data_format": "channels_last", "dilation_rate": [1, 1], "groups": 1, "activation": "linear", "use_bias": false, "kernel_initializer": {"module": "keras.initializers", "class_name": "GlorotUniform", "config": {"seed": null}, "registered_name": null}, "bias_initializer": {"module": "keras.initializers", "class_name": "Zeros", "config": {}, "registered_name": null}, "kernel_regularizer": null, "bias_regularizer": null, "activity_regularizer": null, "kernel_constraint": null, "bias_constraint": null}, "name": "conv3_block5_2_conv", "inbound_nodes": [[["conv3_block5_2_pad", 0, 0, {}]]]}, {"class_name": "BatchNormalization", "config": {"name": "conv3_block5_2_bn", "trainable": false, "dtype": "float32", "axis": [3], "momentum": 0.99, "epsilon": 1.001e-05, "center": true, "scale": true, "beta_initializer": {"module": "keras.initializers", "class_name": "Zeros", "config": {}, "registered_name": null}, "gamma_initializer": {"module": "keras.initializers", "class_name": "Ones", "config": {}, "registered_name": null}, "moving_mean_initializer": {"module": "keras.initializers", "class_name": "Zeros", "config": {}, "registered_name": null}, "moving_variance_initializer": {"module": "keras.initializers", "class_name": "Ones", "config": {}, "registered_name": null}, "beta_regularizer": null, "gamma_regularizer": null, "beta_constraint": null, "gamma_constraint": null}, "name": "conv3_block5_2_bn", "inbound_nodes": [[["conv3_block5_2_conv", 0, 0, {}]]]}, {"class_name": "Activation", "config": {"name": "conv3_block5_2_relu", "trainable": false, "dtype": "float32", "activation": "relu"}, "name": "conv3_block5_2_relu", "inbound_nodes": [[["conv3_block5_2_bn", 0, 0, {}]]]}, {"class_name": "Conv2D", "config": {"name": "conv3_block5_3_conv", "trainable": false, "dtype": "float32", "filters": 512, "kernel_size": [1, 1], "strides": [1, 1], "padding": "valid", "data_format": "channels_last", "dilation_rate": [1, 1], "groups": 1, "activation": "linear", "use_bias": true, "kernel_initializer": {"module": "keras.initializers", "class_name": "GlorotUniform", "config": {"seed": null}, "registered_name": null}, "bias_initializer": {"module": "keras.initializers", "class_name": "Zeros", "config": {}, "registered_name": null}, "kernel_regularizer": null, "bias_regularizer": null, "activity_regularizer": null, "kernel_constraint": null, "bias_constraint": null}, "name": "conv3_block5_3_conv", "inbound_nodes": [[["conv3_block5_2_relu", 0, 0, {}]]]}, {"class_name": "Add", "config": {"name": "conv3_block5_out", "trainable": false, "dtype": "float32"}, "name": "conv3_block5_out", "inbound_nodes": [[["conv3_block4_out", 0, 0, {}], ["conv3_block5_3_conv", 0, 0, {}]]]}, {"class_name": "BatchNormalization", "config": {"name": "conv3_block6_preact_bn", "trainable": false, "dtype": "float32", "axis": [3], "momentum": 0.99, "epsilon": 1.001e-05, "center": true, "scale": true, "beta_initializer": {"module": "keras.initializers", "class_name": "Zeros", "config": {}, "registered_name": null}, "gamma_initializer": {"module": "keras.initializers", "class_name": "Ones", "config": {}, "registered_name": null}, "moving_mean_initializer": {"module": "keras.initializers", "class_name": "Zeros", "config": {}, "registered_name": null}, "moving_variance_initializer": {"module": "keras.initializers", "class_name": "Ones", "config": {}, "registered_name": null}, "beta_regularizer": null, "gamma_regularizer": null, "beta_constraint": null, "gamma_constraint": null}, "name": "conv3_block6_preact_bn", "inbound_nodes": [[["conv3_block5_out", 0, 0, {}]]]}, {"class_name": "Activation", "config": {"name": "conv3_block6_preact_relu", "trainable": false, "dtype": "float32", "activation": "relu"}, "name": "conv3_block6_preact_relu", "inbound_nodes": [[["conv3_block6_preact_bn", 0, 0, {}]]]}, {"class_name": "Conv2D", "config": {"name": "conv3_block6_1_conv", "trainable": false, "dtype": "float32", "filters": 128, "kernel_size": [1, 1], "strides": [1, 1], "padding": "valid", "data_format": "channels_last", "dilation_rate": [1, 1], "groups": 1, "activation": "linear", "use_bias": false, "kernel_initializer": {"module": "keras.initializers", "class_name": "GlorotUniform", "config": {"seed": null}, "registered_name": null}, "bias_initializer": {"module": "keras.initializers", "class_name": "Zeros", "config": {}, "registered_name": null}, "kernel_regularizer": null, "bias_regularizer": null, "activity_regularizer": null, "kernel_constraint": null, "bias_constraint": null}, "name": "conv3_block6_1_conv", "inbound_nodes": [[["conv3_block6_preact_relu", 0, 0, {}]]]}, {"class_name": "BatchNormalization", "config": {"name": "conv3_block6_1_bn", "trainable": false, "dtype": "float32", "axis": [3], "momentum": 0.99, "epsilon": 1.001e-05, "center": true, "scale": true, "beta_initializer": {"module": "keras.initializers", "class_name": "Zeros", "config": {}, "registered_name": null}, "gamma_initializer": {"module": "keras.initializers", "class_name": "Ones", "config": {}, "registered_name": null}, "moving_mean_initializer": {"module": "keras.initializers", "class_name": "Zeros", "config": {}, "registered_name": null}, "moving_variance_initializer": {"module": "keras.initializers", "class_name": "Ones", "config": {}, "registered_name": null}, "beta_regularizer": null, "gamma_regularizer": null, "beta_constraint": null, "gamma_constraint": null}, "name": "conv3_block6_1_bn", "inbound_nodes": [[["conv3_block6_1_conv", 0, 0, {}]]]}, {"class_name": "Activation", "config": {"name": "conv3_block6_1_relu", "trainable": false, "dtype": "float32", "activation": "relu"}, "name": "conv3_block6_1_relu", "inbound_nodes": [[["conv3_block6_1_bn", 0, 0, {}]]]}, {"class_name": "ZeroPadding2D", "config": {"name": "conv3_block6_2_pad", "trainable": false, "dtype": "float32", "padding": [[1, 1], [1, 1]], "data_format": "channels_last"}, "name": "conv3_block6_2_pad", "inbound_nodes": [[["conv3_block6_1_relu", 0, 0, {}]]]}, {"class_name": "Conv2D", "config": {"name": "conv3_block6_2_conv", "trainable": false, "dtype": "float32", "filters": 128, "kernel_size": [3, 3], "strides": [1, 1], "padding": "valid", "data_format": "channels_last", "dilation_rate": [1, 1], "groups": 1, "activation": "linear", "use_bias": false, "kernel_initializer": {"module": "keras.initializers", "class_name": "GlorotUniform", "config": {"seed": null}, "registered_name": null}, "bias_initializer": {"module": "keras.initializers", "class_name": "Zeros", "config": {}, "registered_name": null}, "kernel_regularizer": null, "bias_regularizer": null, "activity_regularizer": null, "kernel_constraint": null, "bias_constraint": null}, "name": "conv3_block6_2_conv", "inbound_nodes": [[["conv3_block6_2_pad", 0, 0, {}]]]}, {"class_name": "BatchNormalization", "config": {"name": "conv3_block6_2_bn", "trainable": false, "dtype": "float32", "axis": [3], "momentum": 0.99, "epsilon": 1.001e-05, "center": true, "scale": true, "beta_initializer": {"module": "keras.initializers", "class_name": "Zeros", "config": {}, "registered_name": null}, "gamma_initializer": {"module": "keras.initializers", "class_name": "Ones", "config": {}, "registered_name": null}, "moving_mean_initializer": {"module": "keras.initializers", "class_name": "Zeros", "config": {}, "registered_name": null}, "moving_variance_initializer": {"module": "keras.initializers", "class_name": "Ones", "config": {}, "registered_name": null}, "beta_regularizer": null, "gamma_regularizer": null, "beta_constraint": null, "gamma_constraint": null}, "name": "conv3_block6_2_bn", "inbound_nodes": [[["conv3_block6_2_conv", 0, 0, {}]]]}, {"class_name": "Activation", "config": {"name": "conv3_block6_2_relu", "trainable": false, "dtype": "float32", "activation": "relu"}, "name": "conv3_block6_2_relu", "inbound_nodes": [[["conv3_block6_2_bn", 0, 0, {}]]]}, {"class_name": "Conv2D", "config": {"name": "conv3_block6_3_conv", "trainable": false, "dtype": "float32", "filters": 512, "kernel_size": [1, 1], "strides": [1, 1], "padding": "valid", "data_format": "channels_last", "dilation_rate": [1, 1], "groups": 1, "activation": "linear", "use_bias": true, "kernel_initializer": {"module": "keras.initializers", "class_name": "GlorotUniform", "config": {"seed": null}, "registered_name": null}, "bias_initializer": {"module": "keras.initializers", "class_name": "Zeros", "config": {}, "registered_name": null}, "kernel_regularizer": null, "bias_regularizer": null, "activity_regularizer": null, "kernel_constraint": null, "bias_constraint": null}, "name": "conv3_block6_3_conv", "inbound_nodes": [[["conv3_block6_2_relu", 0, 0, {}]]]}, {"class_name": "Add", "config": {"name": "conv3_block6_out", "trainable": false, "dtype": "float32"}, "name": "conv3_block6_out", "inbound_nodes": [[["conv3_block5_out", 0, 0, {}], ["conv3_block6_3_conv", 0, 0, {}]]]}, {"class_name": "BatchNormalization", "config": {"name": "conv3_block7_preact_bn", "trainable": false, "dtype": "float32", "axis": [3], "momentum": 0.99, "epsilon": 1.001e-05, "center": true, "scale": true, "beta_initializer": {"module": "keras.initializers", "class_name": "Zeros", "config": {}, "registered_name": null}, "gamma_initializer": {"module": "keras.initializers", "class_name": "Ones", "config": {}, "registered_name": null}, "moving_mean_initializer": {"module": "keras.initializers", "class_name": "Zeros", "config": {}, "registered_name": null}, "moving_variance_initializer": {"module": "keras.initializers", "class_name": "Ones", "config": {}, "registered_name": null}, "beta_regularizer": null, "gamma_regularizer": null, "beta_constraint": null, "gamma_constraint": null}, "name": "conv3_block7_preact_bn", "inbound_nodes": [[["conv3_block6_out", 0, 0, {}]]]}, {"class_name": "Activation", "config": {"name": "conv3_block7_preact_relu", "trainable": false, "dtype": "float32", "activation": "relu"}, "name": "conv3_block7_preact_relu", "inbound_nodes": [[["conv3_block7_preact_bn", 0, 0, {}]]]}, {"class_name": "Conv2D", "config": {"name": "conv3_block7_1_conv", "trainable": false, "dtype": "float32", "filters": 128, "kernel_size": [1, 1], "strides": [1, 1], "padding": "valid", "data_format": "channels_last", "dilation_rate": [1, 1], "groups": 1, "activation": "linear", "use_bias": false, "kernel_initializer": {"module": "keras.initializers", "class_name": "GlorotUniform", "config": {"seed": null}, "registered_name": null}, "bias_initializer": {"module": "keras.initializers", "class_name": "Zeros", "config": {}, "registered_name": null}, "kernel_regularizer": null, "bias_regularizer": null, "activity_regularizer": null, "kernel_constraint": null, "bias_constraint": null}, "name": "conv3_block7_1_conv", "inbound_nodes": [[["conv3_block7_preact_relu", 0, 0, {}]]]}, {"class_name": "BatchNormalization", "config": {"name": "conv3_block7_1_bn", "trainable": false, "dtype": "float32", "axis": [3], "momentum": 0.99, "epsilon": 1.001e-05, "center": true, "scale": true, "beta_initializer": {"module": "keras.initializers", "class_name": "Zeros", "config": {}, "registered_name": null}, "gamma_initializer": {"module": "keras.initializers", "class_name": "Ones", "config": {}, "registered_name": null}, "moving_mean_initializer": {"module": "keras.initializers", "class_name": "Zeros", "config": {}, "registered_name": null}, "moving_variance_initializer": {"module": "keras.initializers", "class_name": "Ones", "config": {}, "registered_name": null}, "beta_regularizer": null, "gamma_regularizer": null, "beta_constraint": null, "gamma_constraint": null}, "name": "conv3_block7_1_bn", "inbound_nodes": [[["conv3_block7_1_conv", 0, 0, {}]]]}, {"class_name": "Activation", "config": {"name": "conv3_block7_1_relu", "trainable": false, "dtype": "float32", "activation": "relu"}, "name": "conv3_block7_1_relu", "inbound_nodes": [[["conv3_block7_1_bn", 0, 0, {}]]]}, {"class_name": "ZeroPadding2D", "config": {"name": "conv3_block7_2_pad", "trainable": false, "dtype": "float32", "padding": [[1, 1], [1, 1]], "data_format": "channels_last"}, "name": "conv3_block7_2_pad", "inbound_nodes": [[["conv3_block7_1_relu", 0, 0, {}]]]}, {"class_name": "Conv2D", "config": {"name": "conv3_block7_2_conv", "trainable": false, "dtype": "float32", "filters": 128, "kernel_size": [3, 3], "strides": [1, 1], "padding": "valid", "data_format": "channels_last", "dilation_rate": [1, 1], "groups": 1, "activation": "linear", "use_bias": false, "kernel_initializer": {"module": "keras.initializers", "class_name": "GlorotUniform", "config": {"seed": null}, "registered_name": null}, "bias_initializer": {"module": "keras.initializers", "class_name": "Zeros", "config": {}, "registered_name": null}, "kernel_regularizer": null, "bias_regularizer": null, "activity_regularizer": null, "kernel_constraint": null, "bias_constraint": null}, "name": "conv3_block7_2_conv", "inbound_nodes": [[["conv3_block7_2_pad", 0, 0, {}]]]}, {"class_name": "BatchNormalization", "config": {"name": "conv3_block7_2_bn", "trainable": false, "dtype": "float32", "axis": [3], "momentum": 0.99, "epsilon": 1.001e-05, "center": true, "scale": true, "beta_initializer": {"module": "keras.initializers", "class_name": "Zeros", "config": {}, "registered_name": null}, "gamma_initializer": {"module": "keras.initializers", "class_name": "Ones", "config": {}, "registered_name": null}, "moving_mean_initializer": {"module": "keras.initializers", "class_name": "Zeros", "config": {}, "registered_name": null}, "moving_variance_initializer": {"module": "keras.initializers", "class_name": "Ones", "config": {}, "registered_name": null}, "beta_regularizer": null, "gamma_regularizer": null, "beta_constraint": null, "gamma_constraint": null}, "name": "conv3_block7_2_bn", "inbound_nodes": [[["conv3_block7_2_conv", 0, 0, {}]]]}, {"class_name": "Activation", "config": {"name": "conv3_block7_2_relu", "trainable": false, "dtype": "float32", "activation": "relu"}, "name": "conv3_block7_2_relu", "inbound_nodes": [[["conv3_block7_2_bn", 0, 0, {}]]]}, {"class_name": "Conv2D", "config": {"name": "conv3_block7_3_conv", "trainable": false, "dtype": "float32", "filters": 512, "kernel_size": [1, 1], "strides": [1, 1], "padding": "valid", "data_format": "channels_last", "dilation_rate": [1, 1], "groups": 1, "activation": "linear", "use_bias": true, "kernel_initializer": {"module": "keras.initializers", "class_name": "GlorotUniform", "config": {"seed": null}, "registered_name": null}, "bias_initializer": {"module": "keras.initializers", "class_name": "Zeros", "config": {}, "registered_name": null}, "kernel_regularizer": null, "bias_regularizer": null, "activity_regularizer": null, "kernel_constraint": null, "bias_constraint": null}, "name": "conv3_block7_3_conv", "inbound_nodes": [[["conv3_block7_2_relu", 0, 0, {}]]]}, {"class_name": "Add", "config": {"name": "conv3_block7_out", "trainable": false, "dtype": "float32"}, "name": "conv3_block7_out", "inbound_nodes": [[["conv3_block6_out", 0, 0, {}], ["conv3_block7_3_conv", 0, 0, {}]]]}, {"class_name": "BatchNormalization", "config": {"name": "conv3_block8_preact_bn", "trainable": false, "dtype": "float32", "axis": [3], "momentum": 0.99, "epsilon": 1.001e-05, "center": true, "scale": true, "beta_initializer": {"module": "keras.initializers", "class_name": "Zeros", "config": {}, "registered_name": null}, "gamma_initializer": {"module": "keras.initializers", "class_name": "Ones", "config": {}, "registered_name": null}, "moving_mean_initializer": {"module": "keras.initializers", "class_name": "Zeros", "config": {}, "registered_name": null}, "moving_variance_initializer": {"module": "keras.initializers", "class_name": "Ones", "config": {}, "registered_name": null}, "beta_regularizer": null, "gamma_regularizer": null, "beta_constraint": null, "gamma_constraint": null}, "name": "conv3_block8_preact_bn", "inbound_nodes": [[["conv3_block7_out", 0, 0, {}]]]}, {"class_name": "Activation", "config": {"name": "conv3_block8_preact_relu", "trainable": false, "dtype": "float32", "activation": "relu"}, "name": "conv3_block8_preact_relu", "inbound_nodes": [[["conv3_block8_preact_bn", 0, 0, {}]]]}, {"class_name": "Conv2D", "config": {"name": "conv3_block8_1_conv", "trainable": false, "dtype": "float32", "filters": 128, "kernel_size": [1, 1], "strides": [1, 1], "padding": "valid", "data_format": "channels_last", "dilation_rate": [1, 1], "groups": 1, "activation": "linear", "use_bias": false, "kernel_initializer": {"module": "keras.initializers", "class_name": "GlorotUniform", "config": {"seed": null}, "registered_name": null}, "bias_initializer": {"module": "keras.initializers", "class_name": "Zeros", "config": {}, "registered_name": null}, "kernel_regularizer": null, "bias_regularizer": null, "activity_regularizer": null, "kernel_constraint": null, "bias_constraint": null}, "name": "conv3_block8_1_conv", "inbound_nodes": [[["conv3_block8_preact_relu", 0, 0, {}]]]}, {"class_name": "BatchNormalization", "config": {"name": "conv3_block8_1_bn", "trainable": false, "dtype": "float32", "axis": [3], "momentum": 0.99, "epsilon": 1.001e-05, "center": true, "scale": true, "beta_initializer": {"module": "keras.initializers", "class_name": "Zeros", "config": {}, "registered_name": null}, "gamma_initializer": {"module": "keras.initializers", "class_name": "Ones", "config": {}, "registered_name": null}, "moving_mean_initializer": {"module": "keras.initializers", "class_name": "Zeros", "config": {}, "registered_name": null}, "moving_variance_initializer": {"module": "keras.initializers", "class_name": "Ones", "config": {}, "registered_name": null}, "beta_regularizer": null, "gamma_regularizer": null, "beta_constraint": null, "gamma_constraint": null}, "name": "conv3_block8_1_bn", "inbound_nodes": [[["conv3_block8_1_conv", 0, 0, {}]]]}, {"class_name": "Activation", "config": {"name": "conv3_block8_1_relu", "trainable": false, "dtype": "float32", "activation": "relu"}, "name": "conv3_block8_1_relu", "inbound_nodes": [[["conv3_block8_1_bn", 0, 0, {}]]]}, {"class_name": "ZeroPadding2D", "config": {"name": "conv3_block8_2_pad", "trainable": false, "dtype": "float32", "padding": [[1, 1], [1, 1]], "data_format": "channels_last"}, "name": "conv3_block8_2_pad", "inbound_nodes": [[["conv3_block8_1_relu", 0, 0, {}]]]}, {"class_name": "Conv2D", "config": {"name": "conv3_block8_2_conv", "trainable": false, "dtype": "float32", "filters": 128, "kernel_size": [3, 3], "strides": [2, 2], "padding": "valid", "data_format": "channels_last", "dilation_rate": [1, 1], "groups": 1, "activation": "linear", "use_bias": false, "kernel_initializer": {"module": "keras.initializers", "class_name": "GlorotUniform", "config": {"seed": null}, "registered_name": null}, "bias_initializer": {"module": "keras.initializers", "class_name": "Zeros", "config": {}, "registered_name": null}, "kernel_regularizer": null, "bias_regularizer": null, "activity_regularizer": null, "kernel_constraint": null, "bias_constraint": null}, "name": "conv3_block8_2_conv", "inbound_nodes": [[["conv3_block8_2_pad", 0, 0, {}]]]}, {"class_name": "BatchNormalization", "config": {"name": "conv3_block8_2_bn", "trainable": false, "dtype": "float32", "axis": [3], "momentum": 0.99, "epsilon": 1.001e-05, "center": true, "scale": true, "beta_initializer": {"module": "keras.initializers", "class_name": "Zeros", "config": {}, "registered_name": null}, "gamma_initializer": {"module": "keras.initializers", "class_name": "Ones", "config": {}, "registered_name": null}, "moving_mean_initializer": {"module": "keras.initializers", "class_name": "Zeros", "config": {}, "registered_name": null}, "moving_variance_initializer": {"module": "keras.initializers", "class_name": "Ones", "config": {}, "registered_name": null}, "beta_regularizer": null, "gamma_regularizer": null, "beta_constraint": null, "gamma_constraint": null}, "name": "conv3_block8_2_bn", "inbound_nodes": [[["conv3_block8_2_conv", 0, 0, {}]]]}, {"class_name": "Activation", "config": {"name": "conv3_block8_2_relu", "trainable": false, "dtype": "float32", "activation": "relu"}, "name": "conv3_block8_2_relu", "inbound_nodes": [[["conv3_block8_2_bn", 0, 0, {}]]]}, {"class_name": "MaxPooling2D", "config": {"name": "max_pooling2d_7", "trainable": false, "dtype": "float32", "pool_size": [1, 1], "padding": "valid", "strides": [2, 2], "data_format": "channels_last"}, "name": "max_pooling2d_7", "inbound_nodes": [[["conv3_block7_out", 0, 0, {}]]]}, {"class_name": "Conv2D", "config": {"name": "conv3_block8_3_conv", "trainable": false, "dtype": "float32", "filters": 512, "kernel_size": [1, 1], "strides": [1, 1], "padding": "valid", "data_format": "channels_last", "dilation_rate": [1, 1], "groups": 1, "activation": "linear", "use_bias": true, "kernel_initializer": {"module": "keras.initializers", "class_name": "GlorotUniform", "config": {"seed": null}, "registered_name": null}, "bias_initializer": {"module": "keras.initializers", "class_name": "Zeros", "config": {}, "registered_name": null}, "kernel_regularizer": null, "bias_regularizer": null, "activity_regularizer": null, "kernel_constraint": null, "bias_constraint": null}, "name": "conv3_block8_3_conv", "inbound_nodes": [[["conv3_block8_2_relu", 0, 0, {}]]]}, {"class_name": "Add", "config": {"name": "conv3_block8_out", "trainable": false, "dtype": "float32"}, "name": "conv3_block8_out", "inbound_nodes": [[["max_pooling2d_7", 0, 0, {}], ["conv3_block8_3_conv", 0, 0, {}]]]}, {"class_name": "BatchNormalization", "config": {"name": "conv4_block1_preact_bn", "trainable": false, "dtype": "float32", "axis": [3], "momentum": 0.99, "epsilon": 1.001e-05, "center": true, "scale": true, "beta_initializer": {"module": "keras.initializers", "class_name": "Zeros", "config": {}, "registered_name": null}, "gamma_initializer": {"module": "keras.initializers", "class_name": "Ones", "config": {}, "registered_name": null}, "moving_mean_initializer": {"module": "keras.initializers", "class_name": "Zeros", "config": {}, "registered_name": null}, "moving_variance_initializer": {"module": "keras.initializers", "class_name": "Ones", "config": {}, "registered_name": null}, "beta_regularizer": null, "gamma_regularizer": null, "beta_constraint": null, "gamma_constraint": null}, "name": "conv4_block1_preact_bn", "inbound_nodes": [[["conv3_block8_out", 0, 0, {}]]]}, {"class_name": "Activation", "config": {"name": "conv4_block1_preact_relu", "trainable": false, "dtype": "float32", "activation": "relu"}, "name": "conv4_block1_preact_relu", "inbound_nodes": [[["conv4_block1_preact_bn", 0, 0, {}]]]}, {"class_name": "Conv2D", "config": {"name": "conv4_block1_1_conv", "trainable": false, "dtype": "float32", "filters": 256, "kernel_size": [1, 1], "strides": [1, 1], "padding": "valid", "data_format": "channels_last", "dilation_rate": [1, 1], "groups": 1, "activation": "linear", "use_bias": false, "kernel_initializer": {"module": "keras.initializers", "class_name": "GlorotUniform", "config": {"seed": null}, "registered_name": null}, "bias_initializer": {"module": "keras.initializers", "class_name": "Zeros", "config": {}, "registered_name": null}, "kernel_regularizer": null, "bias_regularizer": null, "activity_regularizer": null, "kernel_constraint": null, "bias_constraint": null}, "name": "conv4_block1_1_conv", "inbound_nodes": [[["conv4_block1_preact_relu", 0, 0, {}]]]}, {"class_name": "BatchNormalization", "config": {"name": "conv4_block1_1_bn", "trainable": false, "dtype": "float32", "axis": [3], "momentum": 0.99, "epsilon": 1.001e-05, "center": true, "scale": true, "beta_initializer": {"module": "keras.initializers", "class_name": "Zeros", "config": {}, "registered_name": null}, "gamma_initializer": {"module": "keras.initializers", "class_name": "Ones", "config": {}, "registered_name": null}, "moving_mean_initializer": {"module": "keras.initializers", "class_name": "Zeros", "config": {}, "registered_name": null}, "moving_variance_initializer": {"module": "keras.initializers", "class_name": "Ones", "config": {}, "registered_name": null}, "beta_regularizer": null, "gamma_regularizer": null, "beta_constraint": null, "gamma_constraint": null}, "name": "conv4_block1_1_bn", "inbound_nodes": [[["conv4_block1_1_conv", 0, 0, {}]]]}, {"class_name": "Activation", "config": {"name": "conv4_block1_1_relu", "trainable": false, "dtype": "float32", "activation": "relu"}, "name": "conv4_block1_1_relu", "inbound_nodes": [[["conv4_block1_1_bn", 0, 0, {}]]]}, {"class_name": "ZeroPadding2D", "config": {"name": "conv4_block1_2_pad", "trainable": false, "dtype": "float32", "padding": [[1, 1], [1, 1]], "data_format": "channels_last"}, "name": "conv4_block1_2_pad", "inbound_nodes": [[["conv4_block1_1_relu", 0, 0, {}]]]}, {"class_name": "Conv2D", "config": {"name": "conv4_block1_2_conv", "trainable": false, "dtype": "float32", "filters": 256, "kernel_size": [3, 3], "strides": [1, 1], "padding": "valid", "data_format": "channels_last", "dilation_rate": [1, 1], "groups": 1, "activation": "linear", "use_bias": false, "kernel_initializer": {"module": "keras.initializers", "class_name": "GlorotUniform", "config": {"seed": null}, "registered_name": null}, "bias_initializer": {"module": "keras.initializers", "class_name": "Zeros", "config": {}, "registered_name": null}, "kernel_regularizer": null, "bias_regularizer": null, "activity_regularizer": null, "kernel_constraint": null, "bias_constraint": null}, "name": "conv4_block1_2_conv", "inbound_nodes": [[["conv4_block1_2_pad", 0, 0, {}]]]}, {"class_name": "BatchNormalization", "config": {"name": "conv4_block1_2_bn", "trainable": false, "dtype": "float32", "axis": [3], "momentum": 0.99, "epsilon": 1.001e-05, "center": true, "scale": true, "beta_initializer": {"module": "keras.initializers", "class_name": "Zeros", "config": {}, "registered_name": null}, "gamma_initializer": {"module": "keras.initializers", "class_name": "Ones", "config": {}, "registered_name": null}, "moving_mean_initializer": {"module": "keras.initializers", "class_name": "Zeros", "config": {}, "registered_name": null}, "moving_variance_initializer": {"module": "keras.initializers", "class_name": "Ones", "config": {}, "registered_name": null}, "beta_regularizer": null, "gamma_regularizer": null, "beta_constraint": null, "gamma_constraint": null}, "name": "conv4_block1_2_bn", "inbound_nodes": [[["conv4_block1_2_conv", 0, 0, {}]]]}, {"class_name": "Activation", "config": {"name": "conv4_block1_2_relu", "trainable": false, "dtype": "float32", "activation": "relu"}, "name": "conv4_block1_2_relu", "inbound_nodes": [[["conv4_block1_2_bn", 0, 0, {}]]]}, {"class_name": "Conv2D", "config": {"name": "conv4_block1_0_conv", "trainable": false, "dtype": "float32", "filters": 1024, "kernel_size": [1, 1], "strides": [1, 1], "padding": "valid", "data_format": "channels_last", "dilation_rate": [1, 1], "groups": 1, "activation": "linear", "use_bias": true, "kernel_initializer": {"module": "keras.initializers", "class_name": "GlorotUniform", "config": {"seed": null}, "registered_name": null}, "bias_initializer": {"module": "keras.initializers", "class_name": "Zeros", "config": {}, "registered_name": null}, "kernel_regularizer": null, "bias_regularizer": null, "activity_regularizer": null, "kernel_constraint": null, "bias_constraint": null}, "name": "conv4_block1_0_conv", "inbound_nodes": [[["conv4_block1_preact_relu", 0, 0, {}]]]}, {"class_name": "Conv2D", "config": {"name": "conv4_block1_3_conv", "trainable": false, "dtype": "float32", "filters": 1024, "kernel_size": [1, 1], "strides": [1, 1], "padding": "valid", "data_format": "channels_last", "dilation_rate": [1, 1], "groups": 1, "activation": "linear", "use_bias": true, "kernel_initializer": {"module": "keras.initializers", "class_name": "GlorotUniform", "config": {"seed": null}, "registered_name": null}, "bias_initializer": {"module": "keras.initializers", "class_name": "Zeros", "config": {}, "registered_name": null}, "kernel_regularizer": null, "bias_regularizer": null, "activity_regularizer": null, "kernel_constraint": null, "bias_constraint": null}, "name": "conv4_block1_3_conv", "inbound_nodes": [[["conv4_block1_2_relu", 0, 0, {}]]]}, {"class_name": "Add", "config": {"name": "conv4_block1_out", "trainable": false, "dtype": "float32"}, "name": "conv4_block1_out", "inbound_nodes": [[["conv4_block1_0_conv", 0, 0, {}], ["conv4_block1_3_conv", 0, 0, {}]]]}, {"class_name": "BatchNormalization", "config": {"name": "conv4_block2_preact_bn", "trainable": false, "dtype": "float32", "axis": [3], "momentum": 0.99, "epsilon": 1.001e-05, "center": true, "scale": true, "beta_initializer": {"module": "keras.initializers", "class_name": "Zeros", "config": {}, "registered_name": null}, "gamma_initializer": {"module": "keras.initializers", "class_name": "Ones", "config": {}, "registered_name": null}, "moving_mean_initializer": {"module": "keras.initializers", "class_name": "Zeros", "config": {}, "registered_name": null}, "moving_variance_initializer": {"module": "keras.initializers", "class_name": "Ones", "config": {}, "registered_name": null}, "beta_regularizer": null, "gamma_regularizer": null, "beta_constraint": null, "gamma_constraint": null}, "name": "conv4_block2_preact_bn", "inbound_nodes": [[["conv4_block1_out", 0, 0, {}]]]}, {"class_name": "Activation", "config": {"name": "conv4_block2_preact_relu", "trainable": false, "dtype": "float32", "activation": "relu"}, "name": "conv4_block2_preact_relu", "inbound_nodes": [[["conv4_block2_preact_bn", 0, 0, {}]]]}, {"class_name": "Conv2D", "config": {"name": "conv4_block2_1_conv", "trainable": false, "dtype": "float32", "filters": 256, "kernel_size": [1, 1], "strides": [1, 1], "padding": "valid", "data_format": "channels_last", "dilation_rate": [1, 1], "groups": 1, "activation": "linear", "use_bias": false, "kernel_initializer": {"module": "keras.initializers", "class_name": "GlorotUniform", "config": {"seed": null}, "registered_name": null}, "bias_initializer": {"module": "keras.initializers", "class_name": "Zeros", "config": {}, "registered_name": null}, "kernel_regularizer": null, "bias_regularizer": null, "activity_regularizer": null, "kernel_constraint": null, "bias_constraint": null}, "name": "conv4_block2_1_conv", "inbound_nodes": [[["conv4_block2_preact_relu", 0, 0, {}]]]}, {"class_name": "BatchNormalization", "config": {"name": "conv4_block2_1_bn", "trainable": false, "dtype": "float32", "axis": [3], "momentum": 0.99, "epsilon": 1.001e-05, "center": true, "scale": true, "beta_initializer": {"module": "keras.initializers", "class_name": "Zeros", "config": {}, "registered_name": null}, "gamma_initializer": {"module": "keras.initializers", "class_name": "Ones", "config": {}, "registered_name": null}, "moving_mean_initializer": {"module": "keras.initializers", "class_name": "Zeros", "config": {}, "registered_name": null}, "moving_variance_initializer": {"module": "keras.initializers", "class_name": "Ones", "config": {}, "registered_name": null}, "beta_regularizer": null, "gamma_regularizer": null, "beta_constraint": null, "gamma_constraint": null}, "name": "conv4_block2_1_bn", "inbound_nodes": [[["conv4_block2_1_conv", 0, 0, {}]]]}, {"class_name": "Activation", "config": {"name": "conv4_block2_1_relu", "trainable": false, "dtype": "float32", "activation": "relu"}, "name": "conv4_block2_1_relu", "inbound_nodes": [[["conv4_block2_1_bn", 0, 0, {}]]]}, {"class_name": "ZeroPadding2D", "config": {"name": "conv4_block2_2_pad", "trainable": false, "dtype": "float32", "padding": [[1, 1], [1, 1]], "data_format": "channels_last"}, "name": "conv4_block2_2_pad", "inbound_nodes": [[["conv4_block2_1_relu", 0, 0, {}]]]}, {"class_name": "Conv2D", "config": {"name": "conv4_block2_2_conv", "trainable": false, "dtype": "float32", "filters": 256, "kernel_size": [3, 3], "strides": [1, 1], "padding": "valid", "data_format": "channels_last", "dilation_rate": [1, 1], "groups": 1, "activation": "linear", "use_bias": false, "kernel_initializer": {"module": "keras.initializers", "class_name": "GlorotUniform", "config": {"seed": null}, "registered_name": null}, "bias_initializer": {"module": "keras.initializers", "class_name": "Zeros", "config": {}, "registered_name": null}, "kernel_regularizer": null, "bias_regularizer": null, "activity_regularizer": null, "kernel_constraint": null, "bias_constraint": null}, "name": "conv4_block2_2_conv", "inbound_nodes": [[["conv4_block2_2_pad", 0, 0, {}]]]}, {"class_name": "BatchNormalization", "config": {"name": "conv4_block2_2_bn", "trainable": false, "dtype": "float32", "axis": [3], "momentum": 0.99, "epsilon": 1.001e-05, "center": true, "scale": true, "beta_initializer": {"module": "keras.initializers", "class_name": "Zeros", "config": {}, "registered_name": null}, "gamma_initializer": {"module": "keras.initializers", "class_name": "Ones", "config": {}, "registered_name": null}, "moving_mean_initializer": {"module": "keras.initializers", "class_name": "Zeros", "config": {}, "registered_name": null}, "moving_variance_initializer": {"module": "keras.initializers", "class_name": "Ones", "config": {}, "registered_name": null}, "beta_regularizer": null, "gamma_regularizer": null, "beta_constraint": null, "gamma_constraint": null}, "name": "conv4_block2_2_bn", "inbound_nodes": [[["conv4_block2_2_conv", 0, 0, {}]]]}, {"class_name": "Activation", "config": {"name": "conv4_block2_2_relu", "trainable": false, "dtype": "float32", "activation": "relu"}, "name": "conv4_block2_2_relu", "inbound_nodes": [[["conv4_block2_2_bn", 0, 0, {}]]]}, {"class_name": "Conv2D", "config": {"name": "conv4_block2_3_conv", "trainable": false, "dtype": "float32", "filters": 1024, "kernel_size": [1, 1], "strides": [1, 1], "padding": "valid", "data_format": "channels_last", "dilation_rate": [1, 1], "groups": 1, "activation": "linear", "use_bias": true, "kernel_initializer": {"module": "keras.initializers", "class_name": "GlorotUniform", "config": {"seed": null}, "registered_name": null}, "bias_initializer": {"module": "keras.initializers", "class_name": "Zeros", "config": {}, "registered_name": null}, "kernel_regularizer": null, "bias_regularizer": null, "activity_regularizer": null, "kernel_constraint": null, "bias_constraint": null}, "name": "conv4_block2_3_conv", "inbound_nodes": [[["conv4_block2_2_relu", 0, 0, {}]]]}, {"class_name": "Add", "config": {"name": "conv4_block2_out", "trainable": false, "dtype": "float32"}, "name": "conv4_block2_out", "inbound_nodes": [[["conv4_block1_out", 0, 0, {}], ["conv4_block2_3_conv", 0, 0, {}]]]}, {"class_name": "BatchNormalization", "config": {"name": "conv4_block3_preact_bn", "trainable": false, "dtype": "float32", "axis": [3], "momentum": 0.99, "epsilon": 1.001e-05, "center": true, "scale": true, "beta_initializer": {"module": "keras.initializers", "class_name": "Zeros", "config": {}, "registered_name": null}, "gamma_initializer": {"module": "keras.initializers", "class_name": "Ones", "config": {}, "registered_name": null}, "moving_mean_initializer": {"module": "keras.initializers", "class_name": "Zeros", "config": {}, "registered_name": null}, "moving_variance_initializer": {"module": "keras.initializers", "class_name": "Ones", "config": {}, "registered_name": null}, "beta_regularizer": null, "gamma_regularizer": null, "beta_constraint": null, "gamma_constraint": null}, "name": "conv4_block3_preact_bn", "inbound_nodes": [[["conv4_block2_out", 0, 0, {}]]]}, {"class_name": "Activation", "config": {"name": "conv4_block3_preact_relu", "trainable": false, "dtype": "float32", "activation": "relu"}, "name": "conv4_block3_preact_relu", "inbound_nodes": [[["conv4_block3_preact_bn", 0, 0, {}]]]}, {"class_name": "Conv2D", "config": {"name": "conv4_block3_1_conv", "trainable": false, "dtype": "float32", "filters": 256, "kernel_size": [1, 1], "strides": [1, 1], "padding": "valid", "data_format": "channels_last", "dilation_rate": [1, 1], "groups": 1, "activation": "linear", "use_bias": false, "kernel_initializer": {"module": "keras.initializers", "class_name": "GlorotUniform", "config": {"seed": null}, "registered_name": null}, "bias_initializer": {"module": "keras.initializers", "class_name": "Zeros", "config": {}, "registered_name": null}, "kernel_regularizer": null, "bias_regularizer": null, "activity_regularizer": null, "kernel_constraint": null, "bias_constraint": null}, "name": "conv4_block3_1_conv", "inbound_nodes": [[["conv4_block3_preact_relu", 0, 0, {}]]]}, {"class_name": "BatchNormalization", "config": {"name": "conv4_block3_1_bn", "trainable": false, "dtype": "float32", "axis": [3], "momentum": 0.99, "epsilon": 1.001e-05, "center": true, "scale": true, "beta_initializer": {"module": "keras.initializers", "class_name": "Zeros", "config": {}, "registered_name": null}, "gamma_initializer": {"module": "keras.initializers", "class_name": "Ones", "config": {}, "registered_name": null}, "moving_mean_initializer": {"module": "keras.initializers", "class_name": "Zeros", "config": {}, "registered_name": null}, "moving_variance_initializer": {"module": "keras.initializers", "class_name": "Ones", "config": {}, "registered_name": null}, "beta_regularizer": null, "gamma_regularizer": null, "beta_constraint": null, "gamma_constraint": null}, "name": "conv4_block3_1_bn", "inbound_nodes": [[["conv4_block3_1_conv", 0, 0, {}]]]}, {"class_name": "Activation", "config": {"name": "conv4_block3_1_relu", "trainable": false, "dtype": "float32", "activation": "relu"}, "name": "conv4_block3_1_relu", "inbound_nodes": [[["conv4_block3_1_bn", 0, 0, {}]]]}, {"class_name": "ZeroPadding2D", "config": {"name": "conv4_block3_2_pad", "trainable": false, "dtype": "float32", "padding": [[1, 1], [1, 1]], "data_format": "channels_last"}, "name": "conv4_block3_2_pad", "inbound_nodes": [[["conv4_block3_1_relu", 0, 0, {}]]]}, {"class_name": "Conv2D", "config": {"name": "conv4_block3_2_conv", "trainable": false, "dtype": "float32", "filters": 256, "kernel_size": [3, 3], "strides": [1, 1], "padding": "valid", "data_format": "channels_last", "dilation_rate": [1, 1], "groups": 1, "activation": "linear", "use_bias": false, "kernel_initializer": {"module": "keras.initializers", "class_name": "GlorotUniform", "config": {"seed": null}, "registered_name": null}, "bias_initializer": {"module": "keras.initializers", "class_name": "Zeros", "config": {}, "registered_name": null}, "kernel_regularizer": null, "bias_regularizer": null, "activity_regularizer": null, "kernel_constraint": null, "bias_constraint": null}, "name": "conv4_block3_2_conv", "inbound_nodes": [[["conv4_block3_2_pad", 0, 0, {}]]]}, {"class_name": "BatchNormalization", "config": {"name": "conv4_block3_2_bn", "trainable": false, "dtype": "float32", "axis": [3], "momentum": 0.99, "epsilon": 1.001e-05, "center": true, "scale": true, "beta_initializer": {"module": "keras.initializers", "class_name": "Zeros", "config": {}, "registered_name": null}, "gamma_initializer": {"module": "keras.initializers", "class_name": "Ones", "config": {}, "registered_name": null}, "moving_mean_initializer": {"module": "keras.initializers", "class_name": "Zeros", "config": {}, "registered_name": null}, "moving_variance_initializer": {"module": "keras.initializers", "class_name": "Ones", "config": {}, "registered_name": null}, "beta_regularizer": null, "gamma_regularizer": null, "beta_constraint": null, "gamma_constraint": null}, "name": "conv4_block3_2_bn", "inbound_nodes": [[["conv4_block3_2_conv", 0, 0, {}]]]}, {"class_name": "Activation", "config": {"name": "conv4_block3_2_relu", "trainable": false, "dtype": "float32", "activation": "relu"}, "name": "conv4_block3_2_relu", "inbound_nodes": [[["conv4_block3_2_bn", 0, 0, {}]]]}, {"class_name": "Conv2D", "config": {"name": "conv4_block3_3_conv", "trainable": false, "dtype": "float32", "filters": 1024, "kernel_size": [1, 1], "strides": [1, 1], "padding": "valid", "data_format": "channels_last", "dilation_rate": [1, 1], "groups": 1, "activation": "linear", "use_bias": true, "kernel_initializer": {"module": "keras.initializers", "class_name": "GlorotUniform", "config": {"seed": null}, "registered_name": null}, "bias_initializer": {"module": "keras.initializers", "class_name": "Zeros", "config": {}, "registered_name": null}, "kernel_regularizer": null, "bias_regularizer": null, "activity_regularizer": null, "kernel_constraint": null, "bias_constraint": null}, "name": "conv4_block3_3_conv", "inbound_nodes": [[["conv4_block3_2_relu", 0, 0, {}]]]}, {"class_name": "Add", "config": {"name": "conv4_block3_out", "trainable": false, "dtype": "float32"}, "name": "conv4_block3_out", "inbound_nodes": [[["conv4_block2_out", 0, 0, {}], ["conv4_block3_3_conv", 0, 0, {}]]]}, {"class_name": "BatchNormalization", "config": {"name": "conv4_block4_preact_bn", "trainable": false, "dtype": "float32", "axis": [3], "momentum": 0.99, "epsilon": 1.001e-05, "center": true, "scale": true, "beta_initializer": {"module": "keras.initializers", "class_name": "Zeros", "config": {}, "registered_name": null}, "gamma_initializer": {"module": "keras.initializers", "class_name": "Ones", "config": {}, "registered_name": null}, "moving_mean_initializer": {"module": "keras.initializers", "class_name": "Zeros", "config": {}, "registered_name": null}, "moving_variance_initializer": {"module": "keras.initializers", "class_name": "Ones", "config": {}, "registered_name": null}, "beta_regularizer": null, "gamma_regularizer": null, "beta_constraint": null, "gamma_constraint": null}, "name": "conv4_block4_preact_bn", "inbound_nodes": [[["conv4_block3_out", 0, 0, {}]]]}, {"class_name": "Activation", "config": {"name": "conv4_block4_preact_relu", "trainable": false, "dtype": "float32", "activation": "relu"}, "name": "conv4_block4_preact_relu", "inbound_nodes": [[["conv4_block4_preact_bn", 0, 0, {}]]]}, {"class_name": "Conv2D", "config": {"name": "conv4_block4_1_conv", "trainable": false, "dtype": "float32", "filters": 256, "kernel_size": [1, 1], "strides": [1, 1], "padding": "valid", "data_format": "channels_last", "dilation_rate": [1, 1], "groups": 1, "activation": "linear", "use_bias": false, "kernel_initializer": {"module": "keras.initializers", "class_name": "GlorotUniform", "config": {"seed": null}, "registered_name": null}, "bias_initializer": {"module": "keras.initializers", "class_name": "Zeros", "config": {}, "registered_name": null}, "kernel_regularizer": null, "bias_regularizer": null, "activity_regularizer": null, "kernel_constraint": null, "bias_constraint": null}, "name": "conv4_block4_1_conv", "inbound_nodes": [[["conv4_block4_preact_relu", 0, 0, {}]]]}, {"class_name": "BatchNormalization", "config": {"name": "conv4_block4_1_bn", "trainable": false, "dtype": "float32", "axis": [3], "momentum": 0.99, "epsilon": 1.001e-05, "center": true, "scale": true, "beta_initializer": {"module": "keras.initializers", "class_name": "Zeros", "config": {}, "registered_name": null}, "gamma_initializer": {"module": "keras.initializers", "class_name": "Ones", "config": {}, "registered_name": null}, "moving_mean_initializer": {"module": "keras.initializers", "class_name": "Zeros", "config": {}, "registered_name": null}, "moving_variance_initializer": {"module": "keras.initializers", "class_name": "Ones", "config": {}, "registered_name": null}, "beta_regularizer": null, "gamma_regularizer": null, "beta_constraint": null, "gamma_constraint": null}, "name": "conv4_block4_1_bn", "inbound_nodes": [[["conv4_block4_1_conv", 0, 0, {}]]]}, {"class_name": "Activation", "config": {"name": "conv4_block4_1_relu", "trainable": false, "dtype": "float32", "activation": "relu"}, "name": "conv4_block4_1_relu", "inbound_nodes": [[["conv4_block4_1_bn", 0, 0, {}]]]}, {"class_name": "ZeroPadding2D", "config": {"name": "conv4_block4_2_pad", "trainable": false, "dtype": "float32", "padding": [[1, 1], [1, 1]], "data_format": "channels_last"}, "name": "conv4_block4_2_pad", "inbound_nodes": [[["conv4_block4_1_relu", 0, 0, {}]]]}, {"class_name": "Conv2D", "config": {"name": "conv4_block4_2_conv", "trainable": false, "dtype": "float32", "filters": 256, "kernel_size": [3, 3], "strides": [1, 1], "padding": "valid", "data_format": "channels_last", "dilation_rate": [1, 1], "groups": 1, "activation": "linear", "use_bias": false, "kernel_initializer": {"module": "keras.initializers", "class_name": "GlorotUniform", "config": {"seed": null}, "registered_name": null}, "bias_initializer": {"module": "keras.initializers", "class_name": "Zeros", "config": {}, "registered_name": null}, "kernel_regularizer": null, "bias_regularizer": null, "activity_regularizer": null, "kernel_constraint": null, "bias_constraint": null}, "name": "conv4_block4_2_conv", "inbound_nodes": [[["conv4_block4_2_pad", 0, 0, {}]]]}, {"class_name": "BatchNormalization", "config": {"name": "conv4_block4_2_bn", "trainable": false, "dtype": "float32", "axis": [3], "momentum": 0.99, "epsilon": 1.001e-05, "center": true, "scale": true, "beta_initializer": {"module": "keras.initializers", "class_name": "Zeros", "config": {}, "registered_name": null}, "gamma_initializer": {"module": "keras.initializers", "class_name": "Ones", "config": {}, "registered_name": null}, "moving_mean_initializer": {"module": "keras.initializers", "class_name": "Zeros", "config": {}, "registered_name": null}, "moving_variance_initializer": {"module": "keras.initializers", "class_name": "Ones", "config": {}, "registered_name": null}, "beta_regularizer": null, "gamma_regularizer": null, "beta_constraint": null, "gamma_constraint": null}, "name": "conv4_block4_2_bn", "inbound_nodes": [[["conv4_block4_2_conv", 0, 0, {}]]]}, {"class_name": "Activation", "config": {"name": "conv4_block4_2_relu", "trainable": false, "dtype": "float32", "activation": "relu"}, "name": "conv4_block4_2_relu", "inbound_nodes": [[["conv4_block4_2_bn", 0, 0, {}]]]}, {"class_name": "Conv2D", "config": {"name": "conv4_block4_3_conv", "trainable": false, "dtype": "float32", "filters": 1024, "kernel_size": [1, 1], "strides": [1, 1], "padding": "valid", "data_format": "channels_last", "dilation_rate": [1, 1], "groups": 1, "activation": "linear", "use_bias": true, "kernel_initializer": {"module": "keras.initializers", "class_name": "GlorotUniform", "config": {"seed": null}, "registered_name": null}, "bias_initializer": {"module": "keras.initializers", "class_name": "Zeros", "config": {}, "registered_name": null}, "kernel_regularizer": null, "bias_regularizer": null, "activity_regularizer": null, "kernel_constraint": null, "bias_constraint": null}, "name": "conv4_block4_3_conv", "inbound_nodes": [[["conv4_block4_2_relu", 0, 0, {}]]]}, {"class_name": "Add", "config": {"name": "conv4_block4_out", "trainable": false, "dtype": "float32"}, "name": "conv4_block4_out", "inbound_nodes": [[["conv4_block3_out", 0, 0, {}], ["conv4_block4_3_conv", 0, 0, {}]]]}, {"class_name": "BatchNormalization", "config": {"name": "conv4_block5_preact_bn", "trainable": false, "dtype": "float32", "axis": [3], "momentum": 0.99, "epsilon": 1.001e-05, "center": true, "scale": true, "beta_initializer": {"module": "keras.initializers", "class_name": "Zeros", "config": {}, "registered_name": null}, "gamma_initializer": {"module": "keras.initializers", "class_name": "Ones", "config": {}, "registered_name": null}, "moving_mean_initializer": {"module": "keras.initializers", "class_name": "Zeros", "config": {}, "registered_name": null}, "moving_variance_initializer": {"module": "keras.initializers", "class_name": "Ones", "config": {}, "registered_name": null}, "beta_regularizer": null, "gamma_regularizer": null, "beta_constraint": null, "gamma_constraint": null}, "name": "conv4_block5_preact_bn", "inbound_nodes": [[["conv4_block4_out", 0, 0, {}]]]}, {"class_name": "Activation", "config": {"name": "conv4_block5_preact_relu", "trainable": false, "dtype": "float32", "activation": "relu"}, "name": "conv4_block5_preact_relu", "inbound_nodes": [[["conv4_block5_preact_bn", 0, 0, {}]]]}, {"class_name": "Conv2D", "config": {"name": "conv4_block5_1_conv", "trainable": false, "dtype": "float32", "filters": 256, "kernel_size": [1, 1], "strides": [1, 1], "padding": "valid", "data_format": "channels_last", "dilation_rate": [1, 1], "groups": 1, "activation": "linear", "use_bias": false, "kernel_initializer": {"module": "keras.initializers", "class_name": "GlorotUniform", "config": {"seed": null}, "registered_name": null}, "bias_initializer": {"module": "keras.initializers", "class_name": "Zeros", "config": {}, "registered_name": null}, "kernel_regularizer": null, "bias_regularizer": null, "activity_regularizer": null, "kernel_constraint": null, "bias_constraint": null}, "name": "conv4_block5_1_conv", "inbound_nodes": [[["conv4_block5_preact_relu", 0, 0, {}]]]}, {"class_name": "BatchNormalization", "config": {"name": "conv4_block5_1_bn", "trainable": false, "dtype": "float32", "axis": [3], "momentum": 0.99, "epsilon": 1.001e-05, "center": true, "scale": true, "beta_initializer": {"module": "keras.initializers", "class_name": "Zeros", "config": {}, "registered_name": null}, "gamma_initializer": {"module": "keras.initializers", "class_name": "Ones", "config": {}, "registered_name": null}, "moving_mean_initializer": {"module": "keras.initializers", "class_name": "Zeros", "config": {}, "registered_name": null}, "moving_variance_initializer": {"module": "keras.initializers", "class_name": "Ones", "config": {}, "registered_name": null}, "beta_regularizer": null, "gamma_regularizer": null, "beta_constraint": null, "gamma_constraint": null}, "name": "conv4_block5_1_bn", "inbound_nodes": [[["conv4_block5_1_conv", 0, 0, {}]]]}, {"class_name": "Activation", "config": {"name": "conv4_block5_1_relu", "trainable": false, "dtype": "float32", "activation": "relu"}, "name": "conv4_block5_1_relu", "inbound_nodes": [[["conv4_block5_1_bn", 0, 0, {}]]]}, {"class_name": "ZeroPadding2D", "config": {"name": "conv4_block5_2_pad", "trainable": false, "dtype": "float32", "padding": [[1, 1], [1, 1]], "data_format": "channels_last"}, "name": "conv4_block5_2_pad", "inbound_nodes": [[["conv4_block5_1_relu", 0, 0, {}]]]}, {"class_name": "Conv2D", "config": {"name": "conv4_block5_2_conv", "trainable": false, "dtype": "float32", "filters": 256, "kernel_size": [3, 3], "strides": [1, 1], "padding": "valid", "data_format": "channels_last", "dilation_rate": [1, 1], "groups": 1, "activation": "linear", "use_bias": false, "kernel_initializer": {"module": "keras.initializers", "class_name": "GlorotUniform", "config": {"seed": null}, "registered_name": null}, "bias_initializer": {"module": "keras.initializers", "class_name": "Zeros", "config": {}, "registered_name": null}, "kernel_regularizer": null, "bias_regularizer": null, "activity_regularizer": null, "kernel_constraint": null, "bias_constraint": null}, "name": "conv4_block5_2_conv", "inbound_nodes": [[["conv4_block5_2_pad", 0, 0, {}]]]}, {"class_name": "BatchNormalization", "config": {"name": "conv4_block5_2_bn", "trainable": false, "dtype": "float32", "axis": [3], "momentum": 0.99, "epsilon": 1.001e-05, "center": true, "scale": true, "beta_initializer": {"module": "keras.initializers", "class_name": "Zeros", "config": {}, "registered_name": null}, "gamma_initializer": {"module": "keras.initializers", "class_name": "Ones", "config": {}, "registered_name": null}, "moving_mean_initializer": {"module": "keras.initializers", "class_name": "Zeros", "config": {}, "registered_name": null}, "moving_variance_initializer": {"module": "keras.initializers", "class_name": "Ones", "config": {}, "registered_name": null}, "beta_regularizer": null, "gamma_regularizer": null, "beta_constraint": null, "gamma_constraint": null}, "name": "conv4_block5_2_bn", "inbound_nodes": [[["conv4_block5_2_conv", 0, 0, {}]]]}, {"class_name": "Activation", "config": {"name": "conv4_block5_2_relu", "trainable": false, "dtype": "float32", "activation": "relu"}, "name": "conv4_block5_2_relu", "inbound_nodes": [[["conv4_block5_2_bn", 0, 0, {}]]]}, {"class_name": "Conv2D", "config": {"name": "conv4_block5_3_conv", "trainable": false, "dtype": "float32", "filters": 1024, "kernel_size": [1, 1], "strides": [1, 1], "padding": "valid", "data_format": "channels_last", "dilation_rate": [1, 1], "groups": 1, "activation": "linear", "use_bias": true, "kernel_initializer": {"module": "keras.initializers", "class_name": "GlorotUniform", "config": {"seed": null}, "registered_name": null}, "bias_initializer": {"module": "keras.initializers", "class_name": "Zeros", "config": {}, "registered_name": null}, "kernel_regularizer": null, "bias_regularizer": null, "activity_regularizer": null, "kernel_constraint": null, "bias_constraint": null}, "name": "conv4_block5_3_conv", "inbound_nodes": [[["conv4_block5_2_relu", 0, 0, {}]]]}, {"class_name": "Add", "config": {"name": "conv4_block5_out", "trainable": false, "dtype": "float32"}, "name": "conv4_block5_out", "inbound_nodes": [[["conv4_block4_out", 0, 0, {}], ["conv4_block5_3_conv", 0, 0, {}]]]}, {"class_name": "BatchNormalization", "config": {"name": "conv4_block6_preact_bn", "trainable": false, "dtype": "float32", "axis": [3], "momentum": 0.99, "epsilon": 1.001e-05, "center": true, "scale": true, "beta_initializer": {"module": "keras.initializers", "class_name": "Zeros", "config": {}, "registered_name": null}, "gamma_initializer": {"module": "keras.initializers", "class_name": "Ones", "config": {}, "registered_name": null}, "moving_mean_initializer": {"module": "keras.initializers", "class_name": "Zeros", "config": {}, "registered_name": null}, "moving_variance_initializer": {"module": "keras.initializers", "class_name": "Ones", "config": {}, "registered_name": null}, "beta_regularizer": null, "gamma_regularizer": null, "beta_constraint": null, "gamma_constraint": null}, "name": "conv4_block6_preact_bn", "inbound_nodes": [[["conv4_block5_out", 0, 0, {}]]]}, {"class_name": "Activation", "config": {"name": "conv4_block6_preact_relu", "trainable": false, "dtype": "float32", "activation": "relu"}, "name": "conv4_block6_preact_relu", "inbound_nodes": [[["conv4_block6_preact_bn", 0, 0, {}]]]}, {"class_name": "Conv2D", "config": {"name": "conv4_block6_1_conv", "trainable": false, "dtype": "float32", "filters": 256, "kernel_size": [1, 1], "strides": [1, 1], "padding": "valid", "data_format": "channels_last", "dilation_rate": [1, 1], "groups": 1, "activation": "linear", "use_bias": false, "kernel_initializer": {"module": "keras.initializers", "class_name": "GlorotUniform", "config": {"seed": null}, "registered_name": null}, "bias_initializer": {"module": "keras.initializers", "class_name": "Zeros", "config": {}, "registered_name": null}, "kernel_regularizer": null, "bias_regularizer": null, "activity_regularizer": null, "kernel_constraint": null, "bias_constraint": null}, "name": "conv4_block6_1_conv", "inbound_nodes": [[["conv4_block6_preact_relu", 0, 0, {}]]]}, {"class_name": "BatchNormalization", "config": {"name": "conv4_block6_1_bn", "trainable": false, "dtype": "float32", "axis": [3], "momentum": 0.99, "epsilon": 1.001e-05, "center": true, "scale": true, "beta_initializer": {"module": "keras.initializers", "class_name": "Zeros", "config": {}, "registered_name": null}, "gamma_initializer": {"module": "keras.initializers", "class_name": "Ones", "config": {}, "registered_name": null}, "moving_mean_initializer": {"module": "keras.initializers", "class_name": "Zeros", "config": {}, "registered_name": null}, "moving_variance_initializer": {"module": "keras.initializers", "class_name": "Ones", "config": {}, "registered_name": null}, "beta_regularizer": null, "gamma_regularizer": null, "beta_constraint": null, "gamma_constraint": null}, "name": "conv4_block6_1_bn", "inbound_nodes": [[["conv4_block6_1_conv", 0, 0, {}]]]}, {"class_name": "Activation", "config": {"name": "conv4_block6_1_relu", "trainable": false, "dtype": "float32", "activation": "relu"}, "name": "conv4_block6_1_relu", "inbound_nodes": [[["conv4_block6_1_bn", 0, 0, {}]]]}, {"class_name": "ZeroPadding2D", "config": {"name": "conv4_block6_2_pad", "trainable": false, "dtype": "float32", "padding": [[1, 1], [1, 1]], "data_format": "channels_last"}, "name": "conv4_block6_2_pad", "inbound_nodes": [[["conv4_block6_1_relu", 0, 0, {}]]]}, {"class_name": "Conv2D", "config": {"name": "conv4_block6_2_conv", "trainable": false, "dtype": "float32", "filters": 256, "kernel_size": [3, 3], "strides": [1, 1], "padding": "valid", "data_format": "channels_last", "dilation_rate": [1, 1], "groups": 1, "activation": "linear", "use_bias": false, "kernel_initializer": {"module": "keras.initializers", "class_name": "GlorotUniform", "config": {"seed": null}, "registered_name": null}, "bias_initializer": {"module": "keras.initializers", "class_name": "Zeros", "config": {}, "registered_name": null}, "kernel_regularizer": null, "bias_regularizer": null, "activity_regularizer": null, "kernel_constraint": null, "bias_constraint": null}, "name": "conv4_block6_2_conv", "inbound_nodes": [[["conv4_block6_2_pad", 0, 0, {}]]]}, {"class_name": "BatchNormalization", "config": {"name": "conv4_block6_2_bn", "trainable": false, "dtype": "float32", "axis": [3], "momentum": 0.99, "epsilon": 1.001e-05, "center": true, "scale": true, "beta_initializer": {"module": "keras.initializers", "class_name": "Zeros", "config": {}, "registered_name": null}, "gamma_initializer": {"module": "keras.initializers", "class_name": "Ones", "config": {}, "registered_name": null}, "moving_mean_initializer": {"module": "keras.initializers", "class_name": "Zeros", "config": {}, "registered_name": null}, "moving_variance_initializer": {"module": "keras.initializers", "class_name": "Ones", "config": {}, "registered_name": null}, "beta_regularizer": null, "gamma_regularizer": null, "beta_constraint": null, "gamma_constraint": null}, "name": "conv4_block6_2_bn", "inbound_nodes": [[["conv4_block6_2_conv", 0, 0, {}]]]}, {"class_name": "Activation", "config": {"name": "conv4_block6_2_relu", "trainable": false, "dtype": "float32", "activation": "relu"}, "name": "conv4_block6_2_relu", "inbound_nodes": [[["conv4_block6_2_bn", 0, 0, {}]]]}, {"class_name": "Conv2D", "config": {"name": "conv4_block6_3_conv", "trainable": false, "dtype": "float32", "filters": 1024, "kernel_size": [1, 1], "strides": [1, 1], "padding": "valid", "data_format": "channels_last", "dilation_rate": [1, 1], "groups": 1, "activation": "linear", "use_bias": true, "kernel_initializer": {"module": "keras.initializers", "class_name": "GlorotUniform", "config": {"seed": null}, "registered_name": null}, "bias_initializer": {"module": "keras.initializers", "class_name": "Zeros", "config": {}, "registered_name": null}, "kernel_regularizer": null, "bias_regularizer": null, "activity_regularizer": null, "kernel_constraint": null, "bias_constraint": null}, "name": "conv4_block6_3_conv", "inbound_nodes": [[["conv4_block6_2_relu", 0, 0, {}]]]}, {"class_name": "Add", "config": {"name": "conv4_block6_out", "trainable": false, "dtype": "float32"}, "name": "conv4_block6_out", "inbound_nodes": [[["conv4_block5_out", 0, 0, {}], ["conv4_block6_3_conv", 0, 0, {}]]]}, {"class_name": "BatchNormalization", "config": {"name": "conv4_block7_preact_bn", "trainable": false, "dtype": "float32", "axis": [3], "momentum": 0.99, "epsilon": 1.001e-05, "center": true, "scale": true, "beta_initializer": {"module": "keras.initializers", "class_name": "Zeros", "config": {}, "registered_name": null}, "gamma_initializer": {"module": "keras.initializers", "class_name": "Ones", "config": {}, "registered_name": null}, "moving_mean_initializer": {"module": "keras.initializers", "class_name": "Zeros", "config": {}, "registered_name": null}, "moving_variance_initializer": {"module": "keras.initializers", "class_name": "Ones", "config": {}, "registered_name": null}, "beta_regularizer": null, "gamma_regularizer": null, "beta_constraint": null, "gamma_constraint": null}, "name": "conv4_block7_preact_bn", "inbound_nodes": [[["conv4_block6_out", 0, 0, {}]]]}, {"class_name": "Activation", "config": {"name": "conv4_block7_preact_relu", "trainable": false, "dtype": "float32", "activation": "relu"}, "name": "conv4_block7_preact_relu", "inbound_nodes": [[["conv4_block7_preact_bn", 0, 0, {}]]]}, {"class_name": "Conv2D", "config": {"name": "conv4_block7_1_conv", "trainable": false, "dtype": "float32", "filters": 256, "kernel_size": [1, 1], "strides": [1, 1], "padding": "valid", "data_format": "channels_last", "dilation_rate": [1, 1], "groups": 1, "activation": "linear", "use_bias": false, "kernel_initializer": {"module": "keras.initializers", "class_name": "GlorotUniform", "config": {"seed": null}, "registered_name": null}, "bias_initializer": {"module": "keras.initializers", "class_name": "Zeros", "config": {}, "registered_name": null}, "kernel_regularizer": null, "bias_regularizer": null, "activity_regularizer": null, "kernel_constraint": null, "bias_constraint": null}, "name": "conv4_block7_1_conv", "inbound_nodes": [[["conv4_block7_preact_relu", 0, 0, {}]]]}, {"class_name": "BatchNormalization", "config": {"name": "conv4_block7_1_bn", "trainable": false, "dtype": "float32", "axis": [3], "momentum": 0.99, "epsilon": 1.001e-05, "center": true, "scale": true, "beta_initializer": {"module": "keras.initializers", "class_name": "Zeros", "config": {}, "registered_name": null}, "gamma_initializer": {"module": "keras.initializers", "class_name": "Ones", "config": {}, "registered_name": null}, "moving_mean_initializer": {"module": "keras.initializers", "class_name": "Zeros", "config": {}, "registered_name": null}, "moving_variance_initializer": {"module": "keras.initializers", "class_name": "Ones", "config": {}, "registered_name": null}, "beta_regularizer": null, "gamma_regularizer": null, "beta_constraint": null, "gamma_constraint": null}, "name": "conv4_block7_1_bn", "inbound_nodes": [[["conv4_block7_1_conv", 0, 0, {}]]]}, {"class_name": "Activation", "config": {"name": "conv4_block7_1_relu", "trainable": false, "dtype": "float32", "activation": "relu"}, "name": "conv4_block7_1_relu", "inbound_nodes": [[["conv4_block7_1_bn", 0, 0, {}]]]}, {"class_name": "ZeroPadding2D", "config": {"name": "conv4_block7_2_pad", "trainable": false, "dtype": "float32", "padding": [[1, 1], [1, 1]], "data_format": "channels_last"}, "name": "conv4_block7_2_pad", "inbound_nodes": [[["conv4_block7_1_relu", 0, 0, {}]]]}, {"class_name": "Conv2D", "config": {"name": "conv4_block7_2_conv", "trainable": false, "dtype": "float32", "filters": 256, "kernel_size": [3, 3], "strides": [1, 1], "padding": "valid", "data_format": "channels_last", "dilation_rate": [1, 1], "groups": 1, "activation": "linear", "use_bias": false, "kernel_initializer": {"module": "keras.initializers", "class_name": "GlorotUniform", "config": {"seed": null}, "registered_name": null}, "bias_initializer": {"module": "keras.initializers", "class_name": "Zeros", "config": {}, "registered_name": null}, "kernel_regularizer": null, "bias_regularizer": null, "activity_regularizer": null, "kernel_constraint": null, "bias_constraint": null}, "name": "conv4_block7_2_conv", "inbound_nodes": [[["conv4_block7_2_pad", 0, 0, {}]]]}, {"class_name": "BatchNormalization", "config": {"name": "conv4_block7_2_bn", "trainable": false, "dtype": "float32", "axis": [3], "momentum": 0.99, "epsilon": 1.001e-05, "center": true, "scale": true, "beta_initializer": {"module": "keras.initializers", "class_name": "Zeros", "config": {}, "registered_name": null}, "gamma_initializer": {"module": "keras.initializers", "class_name": "Ones", "config": {}, "registered_name": null}, "moving_mean_initializer": {"module": "keras.initializers", "class_name": "Zeros", "config": {}, "registered_name": null}, "moving_variance_initializer": {"module": "keras.initializers", "class_name": "Ones", "config": {}, "registered_name": null}, "beta_regularizer": null, "gamma_regularizer": null, "beta_constraint": null, "gamma_constraint": null}, "name": "conv4_block7_2_bn", "inbound_nodes": [[["conv4_block7_2_conv", 0, 0, {}]]]}, {"class_name": "Activation", "config": {"name": "conv4_block7_2_relu", "trainable": false, "dtype": "float32", "activation": "relu"}, "name": "conv4_block7_2_relu", "inbound_nodes": [[["conv4_block7_2_bn", 0, 0, {}]]]}, {"class_name": "Conv2D", "config": {"name": "conv4_block7_3_conv", "trainable": false, "dtype": "float32", "filters": 1024, "kernel_size": [1, 1], "strides": [1, 1], "padding": "valid", "data_format": "channels_last", "dilation_rate": [1, 1], "groups": 1, "activation": "linear", "use_bias": true, "kernel_initializer": {"module": "keras.initializers", "class_name": "GlorotUniform", "config": {"seed": null}, "registered_name": null}, "bias_initializer": {"module": "keras.initializers", "class_name": "Zeros", "config": {}, "registered_name": null}, "kernel_regularizer": null, "bias_regularizer": null, "activity_regularizer": null, "kernel_constraint": null, "bias_constraint": null}, "name": "conv4_block7_3_conv", "inbound_nodes": [[["conv4_block7_2_relu", 0, 0, {}]]]}, {"class_name": "Add", "config": {"name": "conv4_block7_out", "trainable": false, "dtype": "float32"}, "name": "conv4_block7_out", "inbound_nodes": [[["conv4_block6_out", 0, 0, {}], ["conv4_block7_3_conv", 0, 0, {}]]]}, {"class_name": "BatchNormalization", "config": {"name": "conv4_block8_preact_bn", "trainable": false, "dtype": "float32", "axis": [3], "momentum": 0.99, "epsilon": 1.001e-05, "center": true, "scale": true, "beta_initializer": {"module": "keras.initializers", "class_name": "Zeros", "config": {}, "registered_name": null}, "gamma_initializer": {"module": "keras.initializers", "class_name": "Ones", "config": {}, "registered_name": null}, "moving_mean_initializer": {"module": "keras.initializers", "class_name": "Zeros", "config": {}, "registered_name": null}, "moving_variance_initializer": {"module": "keras.initializers", "class_name": "Ones", "config": {}, "registered_name": null}, "beta_regularizer": null, "gamma_regularizer": null, "beta_constraint": null, "gamma_constraint": null}, "name": "conv4_block8_preact_bn", "inbound_nodes": [[["conv4_block7_out", 0, 0, {}]]]}, {"class_name": "Activation", "config": {"name": "conv4_block8_preact_relu", "trainable": false, "dtype": "float32", "activation": "relu"}, "name": "conv4_block8_preact_relu", "inbound_nodes": [[["conv4_block8_preact_bn", 0, 0, {}]]]}, {"class_name": "Conv2D", "config": {"name": "conv4_block8_1_conv", "trainable": false, "dtype": "float32", "filters": 256, "kernel_size": [1, 1], "strides": [1, 1], "padding": "valid", "data_format": "channels_last", "dilation_rate": [1, 1], "groups": 1, "activation": "linear", "use_bias": false, "kernel_initializer": {"module": "keras.initializers", "class_name": "GlorotUniform", "config": {"seed": null}, "registered_name": null}, "bias_initializer": {"module": "keras.initializers", "class_name": "Zeros", "config": {}, "registered_name": null}, "kernel_regularizer": null, "bias_regularizer": null, "activity_regularizer": null, "kernel_constraint": null, "bias_constraint": null}, "name": "conv4_block8_1_conv", "inbound_nodes": [[["conv4_block8_preact_relu", 0, 0, {}]]]}, {"class_name": "BatchNormalization", "config": {"name": "conv4_block8_1_bn", "trainable": false, "dtype": "float32", "axis": [3], "momentum": 0.99, "epsilon": 1.001e-05, "center": true, "scale": true, "beta_initializer": {"module": "keras.initializers", "class_name": "Zeros", "config": {}, "registered_name": null}, "gamma_initializer": {"module": "keras.initializers", "class_name": "Ones", "config": {}, "registered_name": null}, "moving_mean_initializer": {"module": "keras.initializers", "class_name": "Zeros", "config": {}, "registered_name": null}, "moving_variance_initializer": {"module": "keras.initializers", "class_name": "Ones", "config": {}, "registered_name": null}, "beta_regularizer": null, "gamma_regularizer": null, "beta_constraint": null, "gamma_constraint": null}, "name": "conv4_block8_1_bn", "inbound_nodes": [[["conv4_block8_1_conv", 0, 0, {}]]]}, {"class_name": "Activation", "config": {"name": "conv4_block8_1_relu", "trainable": false, "dtype": "float32", "activation": "relu"}, "name": "conv4_block8_1_relu", "inbound_nodes": [[["conv4_block8_1_bn", 0, 0, {}]]]}, {"class_name": "ZeroPadding2D", "config": {"name": "conv4_block8_2_pad", "trainable": false, "dtype": "float32", "padding": [[1, 1], [1, 1]], "data_format": "channels_last"}, "name": "conv4_block8_2_pad", "inbound_nodes": [[["conv4_block8_1_relu", 0, 0, {}]]]}, {"class_name": "Conv2D", "config": {"name": "conv4_block8_2_conv", "trainable": false, "dtype": "float32", "filters": 256, "kernel_size": [3, 3], "strides": [1, 1], "padding": "valid", "data_format": "channels_last", "dilation_rate": [1, 1], "groups": 1, "activation": "linear", "use_bias": false, "kernel_initializer": {"module": "keras.initializers", "class_name": "GlorotUniform", "config": {"seed": null}, "registered_name": null}, "bias_initializer": {"module": "keras.initializers", "class_name": "Zeros", "config": {}, "registered_name": null}, "kernel_regularizer": null, "bias_regularizer": null, "activity_regularizer": null, "kernel_constraint": null, "bias_constraint": null}, "name": "conv4_block8_2_conv", "inbound_nodes": [[["conv4_block8_2_pad", 0, 0, {}]]]}, {"class_name": "BatchNormalization", "config": {"name": "conv4_block8_2_bn", "trainable": false, "dtype": "float32", "axis": [3], "momentum": 0.99, "epsilon": 1.001e-05, "center": true, "scale": true, "beta_initializer": {"module": "keras.initializers", "class_name": "Zeros", "config": {}, "registered_name": null}, "gamma_initializer": {"module": "keras.initializers", "class_name": "Ones", "config": {}, "registered_name": null}, "moving_mean_initializer": {"module": "keras.initializers", "class_name": "Zeros", "config": {}, "registered_name": null}, "moving_variance_initializer": {"module": "keras.initializers", "class_name": "Ones", "config": {}, "registered_name": null}, "beta_regularizer": null, "gamma_regularizer": null, "beta_constraint": null, "gamma_constraint": null}, "name": "conv4_block8_2_bn", "inbound_nodes": [[["conv4_block8_2_conv", 0, 0, {}]]]}, {"class_name": "Activation", "config": {"name": "conv4_block8_2_relu", "trainable": false, "dtype": "float32", "activation": "relu"}, "name": "conv4_block8_2_relu", "inbound_nodes": [[["conv4_block8_2_bn", 0, 0, {}]]]}, {"class_name": "Conv2D", "config": {"name": "conv4_block8_3_conv", "trainable": false, "dtype": "float32", "filters": 1024, "kernel_size": [1, 1], "strides": [1, 1], "padding": "valid", "data_format": "channels_last", "dilation_rate": [1, 1], "groups": 1, "activation": "linear", "use_bias": true, "kernel_initializer": {"module": "keras.initializers", "class_name": "GlorotUniform", "config": {"seed": null}, "registered_name": null}, "bias_initializer": {"module": "keras.initializers", "class_name": "Zeros", "config": {}, "registered_name": null}, "kernel_regularizer": null, "bias_regularizer": null, "activity_regularizer": null, "kernel_constraint": null, "bias_constraint": null}, "name": "conv4_block8_3_conv", "inbound_nodes": [[["conv4_block8_2_relu", 0, 0, {}]]]}, {"class_name": "Add", "config": {"name": "conv4_block8_out", "trainable": false, "dtype": "float32"}, "name": "conv4_block8_out", "inbound_nodes": [[["conv4_block7_out", 0, 0, {}], ["conv4_block8_3_conv", 0, 0, {}]]]}, {"class_name": "BatchNormalization", "config": {"name": "conv4_block9_preact_bn", "trainable": false, "dtype": "float32", "axis": [3], "momentum": 0.99, "epsilon": 1.001e-05, "center": true, "scale": true, "beta_initializer": {"module": "keras.initializers", "class_name": "Zeros", "config": {}, "registered_name": null}, "gamma_initializer": {"module": "keras.initializers", "class_name": "Ones", "config": {}, "registered_name": null}, "moving_mean_initializer": {"module": "keras.initializers", "class_name": "Zeros", "config": {}, "registered_name": null}, "moving_variance_initializer": {"module": "keras.initializers", "class_name": "Ones", "config": {}, "registered_name": null}, "beta_regularizer": null, "gamma_regularizer": null, "beta_constraint": null, "gamma_constraint": null}, "name": "conv4_block9_preact_bn", "inbound_nodes": [[["conv4_block8_out", 0, 0, {}]]]}, {"class_name": "Activation", "config": {"name": "conv4_block9_preact_relu", "trainable": false, "dtype": "float32", "activation": "relu"}, "name": "conv4_block9_preact_relu", "inbound_nodes": [[["conv4_block9_preact_bn", 0, 0, {}]]]}, {"class_name": "Conv2D", "config": {"name": "conv4_block9_1_conv", "trainable": false, "dtype": "float32", "filters": 256, "kernel_size": [1, 1], "strides": [1, 1], "padding": "valid", "data_format": "channels_last", "dilation_rate": [1, 1], "groups": 1, "activation": "linear", "use_bias": false, "kernel_initializer": {"module": "keras.initializers", "class_name": "GlorotUniform", "config": {"seed": null}, "registered_name": null}, "bias_initializer": {"module": "keras.initializers", "class_name": "Zeros", "config": {}, "registered_name": null}, "kernel_regularizer": null, "bias_regularizer": null, "activity_regularizer": null, "kernel_constraint": null, "bias_constraint": null}, "name": "conv4_block9_1_conv", "inbound_nodes": [[["conv4_block9_preact_relu", 0, 0, {}]]]}, {"class_name": "BatchNormalization", "config": {"name": "conv4_block9_1_bn", "trainable": false, "dtype": "float32", "axis": [3], "momentum": 0.99, "epsilon": 1.001e-05, "center": true, "scale": true, "beta_initializer": {"module": "keras.initializers", "class_name": "Zeros", "config": {}, "registered_name": null}, "gamma_initializer": {"module": "keras.initializers", "class_name": "Ones", "config": {}, "registered_name": null}, "moving_mean_initializer": {"module": "keras.initializers", "class_name": "Zeros", "config": {}, "registered_name": null}, "moving_variance_initializer": {"module": "keras.initializers", "class_name": "Ones", "config": {}, "registered_name": null}, "beta_regularizer": null, "gamma_regularizer": null, "beta_constraint": null, "gamma_constraint": null}, "name": "conv4_block9_1_bn", "inbound_nodes": [[["conv4_block9_1_conv", 0, 0, {}]]]}, {"class_name": "Activation", "config": {"name": "conv4_block9_1_relu", "trainable": false, "dtype": "float32", "activation": "relu"}, "name": "conv4_block9_1_relu", "inbound_nodes": [[["conv4_block9_1_bn", 0, 0, {}]]]}, {"class_name": "ZeroPadding2D", "config": {"name": "conv4_block9_2_pad", "trainable": false, "dtype": "float32", "padding": [[1, 1], [1, 1]], "data_format": "channels_last"}, "name": "conv4_block9_2_pad", "inbound_nodes": [[["conv4_block9_1_relu", 0, 0, {}]]]}, {"class_name": "Conv2D", "config": {"name": "conv4_block9_2_conv", "trainable": false, "dtype": "float32", "filters": 256, "kernel_size": [3, 3], "strides": [1, 1], "padding": "valid", "data_format": "channels_last", "dilation_rate": [1, 1], "groups": 1, "activation": "linear", "use_bias": false, "kernel_initializer": {"module": "keras.initializers", "class_name": "GlorotUniform", "config": {"seed": null}, "registered_name": null}, "bias_initializer": {"module": "keras.initializers", "class_name": "Zeros", "config": {}, "registered_name": null}, "kernel_regularizer": null, "bias_regularizer": null, "activity_regularizer": null, "kernel_constraint": null, "bias_constraint": null}, "name": "conv4_block9_2_conv", "inbound_nodes": [[["conv4_block9_2_pad", 0, 0, {}]]]}, {"class_name": "BatchNormalization", "config": {"name": "conv4_block9_2_bn", "trainable": false, "dtype": "float32", "axis": [3], "momentum": 0.99, "epsilon": 1.001e-05, "center": true, "scale": true, "beta_initializer": {"module": "keras.initializers", "class_name": "Zeros", "config": {}, "registered_name": null}, "gamma_initializer": {"module": "keras.initializers", "class_name": "Ones", "config": {}, "registered_name": null}, "moving_mean_initializer": {"module": "keras.initializers", "class_name": "Zeros", "config": {}, "registered_name": null}, "moving_variance_initializer": {"module": "keras.initializers", "class_name": "Ones", "config": {}, "registered_name": null}, "beta_regularizer": null, "gamma_regularizer": null, "beta_constraint": null, "gamma_constraint": null}, "name": "conv4_block9_2_bn", "inbound_nodes": [[["conv4_block9_2_conv", 0, 0, {}]]]}, {"class_name": "Activation", "config": {"name": "conv4_block9_2_relu", "trainable": false, "dtype": "float32", "activation": "relu"}, "name": "conv4_block9_2_relu", "inbound_nodes": [[["conv4_block9_2_bn", 0, 0, {}]]]}, {"class_name": "Conv2D", "config": {"name": "conv4_block9_3_conv", "trainable": false, "dtype": "float32", "filters": 1024, "kernel_size": [1, 1], "strides": [1, 1], "padding": "valid", "data_format": "channels_last", "dilation_rate": [1, 1], "groups": 1, "activation": "linear", "use_bias": true, "kernel_initializer": {"module": "keras.initializers", "class_name": "GlorotUniform", "config": {"seed": null}, "registered_name": null}, "bias_initializer": {"module": "keras.initializers", "class_name": "Zeros", "config": {}, "registered_name": null}, "kernel_regularizer": null, "bias_regularizer": null, "activity_regularizer": null, "kernel_constraint": null, "bias_constraint": null}, "name": "conv4_block9_3_conv", "inbound_nodes": [[["conv4_block9_2_relu", 0, 0, {}]]]}, {"class_name": "Add", "config": {"name": "conv4_block9_out", "trainable": false, "dtype": "float32"}, "name": "conv4_block9_out", "inbound_nodes": [[["conv4_block8_out", 0, 0, {}], ["conv4_block9_3_conv", 0, 0, {}]]]}, {"class_name": "BatchNormalization", "config": {"name": "conv4_block10_preact_bn", "trainable": false, "dtype": "float32", "axis": [3], "momentum": 0.99, "epsilon": 1.001e-05, "center": true, "scale": true, "beta_initializer": {"module": "keras.initializers", "class_name": "Zeros", "config": {}, "registered_name": null}, "gamma_initializer": {"module": "keras.initializers", "class_name": "Ones", "config": {}, "registered_name": null}, "moving_mean_initializer": {"module": "keras.initializers", "class_name": "Zeros", "config": {}, "registered_name": null}, "moving_variance_initializer": {"module": "keras.initializers", "class_name": "Ones", "config": {}, "registered_name": null}, "beta_regularizer": null, "gamma_regularizer": null, "beta_constraint": null, "gamma_constraint": null}, "name": "conv4_block10_preact_bn", "inbound_nodes": [[["conv4_block9_out", 0, 0, {}]]]}, {"class_name": "Activation", "config": {"name": "conv4_block10_preact_relu", "trainable": false, "dtype": "float32", "activation": "relu"}, "name": "conv4_block10_preact_relu", "inbound_nodes": [[["conv4_block10_preact_bn", 0, 0, {}]]]}, {"class_name": "Conv2D", "config": {"name": "conv4_block10_1_conv", "trainable": false, "dtype": "float32", "filters": 256, "kernel_size": [1, 1], "strides": [1, 1], "padding": "valid", "data_format": "channels_last", "dilation_rate": [1, 1], "groups": 1, "activation": "linear", "use_bias": false, "kernel_initializer": {"module": "keras.initializers", "class_name": "GlorotUniform", "config": {"seed": null}, "registered_name": null}, "bias_initializer": {"module": "keras.initializers", "class_name": "Zeros", "config": {}, "registered_name": null}, "kernel_regularizer": null, "bias_regularizer": null, "activity_regularizer": null, "kernel_constraint": null, "bias_constraint": null}, "name": "conv4_block10_1_conv", "inbound_nodes": [[["conv4_block10_preact_relu", 0, 0, {}]]]}, {"class_name": "BatchNormalization", "config": {"name": "conv4_block10_1_bn", "trainable": false, "dtype": "float32", "axis": [3], "momentum": 0.99, "epsilon": 1.001e-05, "center": true, "scale": true, "beta_initializer": {"module": "keras.initializers", "class_name": "Zeros", "config": {}, "registered_name": null}, "gamma_initializer": {"module": "keras.initializers", "class_name": "Ones", "config": {}, "registered_name": null}, "moving_mean_initializer": {"module": "keras.initializers", "class_name": "Zeros", "config": {}, "registered_name": null}, "moving_variance_initializer": {"module": "keras.initializers", "class_name": "Ones", "config": {}, "registered_name": null}, "beta_regularizer": null, "gamma_regularizer": null, "beta_constraint": null, "gamma_constraint": null}, "name": "conv4_block10_1_bn", "inbound_nodes": [[["conv4_block10_1_conv", 0, 0, {}]]]}, {"class_name": "Activation", "config": {"name": "conv4_block10_1_relu", "trainable": false, "dtype": "float32", "activation": "relu"}, "name": "conv4_block10_1_relu", "inbound_nodes": [[["conv4_block10_1_bn", 0, 0, {}]]]}, {"class_name": "ZeroPadding2D", "config": {"name": "conv4_block10_2_pad", "trainable": false, "dtype": "float32", "padding": [[1, 1], [1, 1]], "data_format": "channels_last"}, "name": "conv4_block10_2_pad", "inbound_nodes": [[["conv4_block10_1_relu", 0, 0, {}]]]}, {"class_name": "Conv2D", "config": {"name": "conv4_block10_2_conv", "trainable": false, "dtype": "float32", "filters": 256, "kernel_size": [3, 3], "strides": [1, 1], "padding": "valid", "data_format": "channels_last", "dilation_rate": [1, 1], "groups": 1, "activation": "linear", "use_bias": false, "kernel_initializer": {"module": "keras.initializers", "class_name": "GlorotUniform", "config": {"seed": null}, "registered_name": null}, "bias_initializer": {"module": "keras.initializers", "class_name": "Zeros", "config": {}, "registered_name": null}, "kernel_regularizer": null, "bias_regularizer": null, "activity_regularizer": null, "kernel_constraint": null, "bias_constraint": null}, "name": "conv4_block10_2_conv", "inbound_nodes": [[["conv4_block10_2_pad", 0, 0, {}]]]}, {"class_name": "BatchNormalization", "config": {"name": "conv4_block10_2_bn", "trainable": false, "dtype": "float32", "axis": [3], "momentum": 0.99, "epsilon": 1.001e-05, "center": true, "scale": true, "beta_initializer": {"module": "keras.initializers", "class_name": "Zeros", "config": {}, "registered_name": null}, "gamma_initializer": {"module": "keras.initializers", "class_name": "Ones", "config": {}, "registered_name": null}, "moving_mean_initializer": {"module": "keras.initializers", "class_name": "Zeros", "config": {}, "registered_name": null}, "moving_variance_initializer": {"module": "keras.initializers", "class_name": "Ones", "config": {}, "registered_name": null}, "beta_regularizer": null, "gamma_regularizer": null, "beta_constraint": null, "gamma_constraint": null}, "name": "conv4_block10_2_bn", "inbound_nodes": [[["conv4_block10_2_conv", 0, 0, {}]]]}, {"class_name": "Activation", "config": {"name": "conv4_block10_2_relu", "trainable": false, "dtype": "float32", "activation": "relu"}, "name": "conv4_block10_2_relu", "inbound_nodes": [[["conv4_block10_2_bn", 0, 0, {}]]]}, {"class_name": "Conv2D", "config": {"name": "conv4_block10_3_conv", "trainable": false, "dtype": "float32", "filters": 1024, "kernel_size": [1, 1], "strides": [1, 1], "padding": "valid", "data_format": "channels_last", "dilation_rate": [1, 1], "groups": 1, "activation": "linear", "use_bias": true, "kernel_initializer": {"module": "keras.initializers", "class_name": "GlorotUniform", "config": {"seed": null}, "registered_name": null}, "bias_initializer": {"module": "keras.initializers", "class_name": "Zeros", "config": {}, "registered_name": null}, "kernel_regularizer": null, "bias_regularizer": null, "activity_regularizer": null, "kernel_constraint": null, "bias_constraint": null}, "name": "conv4_block10_3_conv", "inbound_nodes": [[["conv4_block10_2_relu", 0, 0, {}]]]}, {"class_name": "Add", "config": {"name": "conv4_block10_out", "trainable": false, "dtype": "float32"}, "name": "conv4_block10_out", "inbound_nodes": [[["conv4_block9_out", 0, 0, {}], ["conv4_block10_3_conv", 0, 0, {}]]]}, {"class_name": "BatchNormalization", "config": {"name": "conv4_block11_preact_bn", "trainable": false, "dtype": "float32", "axis": [3], "momentum": 0.99, "epsilon": 1.001e-05, "center": true, "scale": true, "beta_initializer": {"module": "keras.initializers", "class_name": "Zeros", "config": {}, "registered_name": null}, "gamma_initializer": {"module": "keras.initializers", "class_name": "Ones", "config": {}, "registered_name": null}, "moving_mean_initializer": {"module": "keras.initializers", "class_name": "Zeros", "config": {}, "registered_name": null}, "moving_variance_initializer": {"module": "keras.initializers", "class_name": "Ones", "config": {}, "registered_name": null}, "beta_regularizer": null, "gamma_regularizer": null, "beta_constraint": null, "gamma_constraint": null}, "name": "conv4_block11_preact_bn", "inbound_nodes": [[["conv4_block10_out", 0, 0, {}]]]}, {"class_name": "Activation", "config": {"name": "conv4_block11_preact_relu", "trainable": false, "dtype": "float32", "activation": "relu"}, "name": "conv4_block11_preact_relu", "inbound_nodes": [[["conv4_block11_preact_bn", 0, 0, {}]]]}, {"class_name": "Conv2D", "config": {"name": "conv4_block11_1_conv", "trainable": false, "dtype": "float32", "filters": 256, "kernel_size": [1, 1], "strides": [1, 1], "padding": "valid", "data_format": "channels_last", "dilation_rate": [1, 1], "groups": 1, "activation": "linear", "use_bias": false, "kernel_initializer": {"module": "keras.initializers", "class_name": "GlorotUniform", "config": {"seed": null}, "registered_name": null}, "bias_initializer": {"module": "keras.initializers", "class_name": "Zeros", "config": {}, "registered_name": null}, "kernel_regularizer": null, "bias_regularizer": null, "activity_regularizer": null, "kernel_constraint": null, "bias_constraint": null}, "name": "conv4_block11_1_conv", "inbound_nodes": [[["conv4_block11_preact_relu", 0, 0, {}]]]}, {"class_name": "BatchNormalization", "config": {"name": "conv4_block11_1_bn", "trainable": false, "dtype": "float32", "axis": [3], "momentum": 0.99, "epsilon": 1.001e-05, "center": true, "scale": true, "beta_initializer": {"module": "keras.initializers", "class_name": "Zeros", "config": {}, "registered_name": null}, "gamma_initializer": {"module": "keras.initializers", "class_name": "Ones", "config": {}, "registered_name": null}, "moving_mean_initializer": {"module": "keras.initializers", "class_name": "Zeros", "config": {}, "registered_name": null}, "moving_variance_initializer": {"module": "keras.initializers", "class_name": "Ones", "config": {}, "registered_name": null}, "beta_regularizer": null, "gamma_regularizer": null, "beta_constraint": null, "gamma_constraint": null}, "name": "conv4_block11_1_bn", "inbound_nodes": [[["conv4_block11_1_conv", 0, 0, {}]]]}, {"class_name": "Activation", "config": {"name": "conv4_block11_1_relu", "trainable": false, "dtype": "float32", "activation": "relu"}, "name": "conv4_block11_1_relu", "inbound_nodes": [[["conv4_block11_1_bn", 0, 0, {}]]]}, {"class_name": "ZeroPadding2D", "config": {"name": "conv4_block11_2_pad", "trainable": false, "dtype": "float32", "padding": [[1, 1], [1, 1]], "data_format": "channels_last"}, "name": "conv4_block11_2_pad", "inbound_nodes": [[["conv4_block11_1_relu", 0, 0, {}]]]}, {"class_name": "Conv2D", "config": {"name": "conv4_block11_2_conv", "trainable": false, "dtype": "float32", "filters": 256, "kernel_size": [3, 3], "strides": [1, 1], "padding": "valid", "data_format": "channels_last", "dilation_rate": [1, 1], "groups": 1, "activation": "linear", "use_bias": false, "kernel_initializer": {"module": "keras.initializers", "class_name": "GlorotUniform", "config": {"seed": null}, "registered_name": null}, "bias_initializer": {"module": "keras.initializers", "class_name": "Zeros", "config": {}, "registered_name": null}, "kernel_regularizer": null, "bias_regularizer": null, "activity_regularizer": null, "kernel_constraint": null, "bias_constraint": null}, "name": "conv4_block11_2_conv", "inbound_nodes": [[["conv4_block11_2_pad", 0, 0, {}]]]}, {"class_name": "BatchNormalization", "config": {"name": "conv4_block11_2_bn", "trainable": false, "dtype": "float32", "axis": [3], "momentum": 0.99, "epsilon": 1.001e-05, "center": true, "scale": true, "beta_initializer": {"module": "keras.initializers", "class_name": "Zeros", "config": {}, "registered_name": null}, "gamma_initializer": {"module": "keras.initializers", "class_name": "Ones", "config": {}, "registered_name": null}, "moving_mean_initializer": {"module": "keras.initializers", "class_name": "Zeros", "config": {}, "registered_name": null}, "moving_variance_initializer": {"module": "keras.initializers", "class_name": "Ones", "config": {}, "registered_name": null}, "beta_regularizer": null, "gamma_regularizer": null, "beta_constraint": null, "gamma_constraint": null}, "name": "conv4_block11_2_bn", "inbound_nodes": [[["conv4_block11_2_conv", 0, 0, {}]]]}, {"class_name": "Activation", "config": {"name": "conv4_block11_2_relu", "trainable": false, "dtype": "float32", "activation": "relu"}, "name": "conv4_block11_2_relu", "inbound_nodes": [[["conv4_block11_2_bn", 0, 0, {}]]]}, {"class_name": "Conv2D", "config": {"name": "conv4_block11_3_conv", "trainable": false, "dtype": "float32", "filters": 1024, "kernel_size": [1, 1], "strides": [1, 1], "padding": "valid", "data_format": "channels_last", "dilation_rate": [1, 1], "groups": 1, "activation": "linear", "use_bias": true, "kernel_initializer": {"module": "keras.initializers", "class_name": "GlorotUniform", "config": {"seed": null}, "registered_name": null}, "bias_initializer": {"module": "keras.initializers", "class_name": "Zeros", "config": {}, "registered_name": null}, "kernel_regularizer": null, "bias_regularizer": null, "activity_regularizer": null, "kernel_constraint": null, "bias_constraint": null}, "name": "conv4_block11_3_conv", "inbound_nodes": [[["conv4_block11_2_relu", 0, 0, {}]]]}, {"class_name": "Add", "config": {"name": "conv4_block11_out", "trainable": false, "dtype": "float32"}, "name": "conv4_block11_out", "inbound_nodes": [[["conv4_block10_out", 0, 0, {}], ["conv4_block11_3_conv", 0, 0, {}]]]}, {"class_name": "BatchNormalization", "config": {"name": "conv4_block12_preact_bn", "trainable": false, "dtype": "float32", "axis": [3], "momentum": 0.99, "epsilon": 1.001e-05, "center": true, "scale": true, "beta_initializer": {"module": "keras.initializers", "class_name": "Zeros", "config": {}, "registered_name": null}, "gamma_initializer": {"module": "keras.initializers", "class_name": "Ones", "config": {}, "registered_name": null}, "moving_mean_initializer": {"module": "keras.initializers", "class_name": "Zeros", "config": {}, "registered_name": null}, "moving_variance_initializer": {"module": "keras.initializers", "class_name": "Ones", "config": {}, "registered_name": null}, "beta_regularizer": null, "gamma_regularizer": null, "beta_constraint": null, "gamma_constraint": null}, "name": "conv4_block12_preact_bn", "inbound_nodes": [[["conv4_block11_out", 0, 0, {}]]]}, {"class_name": "Activation", "config": {"name": "conv4_block12_preact_relu", "trainable": false, "dtype": "float32", "activation": "relu"}, "name": "conv4_block12_preact_relu", "inbound_nodes": [[["conv4_block12_preact_bn", 0, 0, {}]]]}, {"class_name": "Conv2D", "config": {"name": "conv4_block12_1_conv", "trainable": false, "dtype": "float32", "filters": 256, "kernel_size": [1, 1], "strides": [1, 1], "padding": "valid", "data_format": "channels_last", "dilation_rate": [1, 1], "groups": 1, "activation": "linear", "use_bias": false, "kernel_initializer": {"module": "keras.initializers", "class_name": "GlorotUniform", "config": {"seed": null}, "registered_name": null}, "bias_initializer": {"module": "keras.initializers", "class_name": "Zeros", "config": {}, "registered_name": null}, "kernel_regularizer": null, "bias_regularizer": null, "activity_regularizer": null, "kernel_constraint": null, "bias_constraint": null}, "name": "conv4_block12_1_conv", "inbound_nodes": [[["conv4_block12_preact_relu", 0, 0, {}]]]}, {"class_name": "BatchNormalization", "config": {"name": "conv4_block12_1_bn", "trainable": false, "dtype": "float32", "axis": [3], "momentum": 0.99, "epsilon": 1.001e-05, "center": true, "scale": true, "beta_initializer": {"module": "keras.initializers", "class_name": "Zeros", "config": {}, "registered_name": null}, "gamma_initializer": {"module": "keras.initializers", "class_name": "Ones", "config": {}, "registered_name": null}, "moving_mean_initializer": {"module": "keras.initializers", "class_name": "Zeros", "config": {}, "registered_name": null}, "moving_variance_initializer": {"module": "keras.initializers", "class_name": "Ones", "config": {}, "registered_name": null}, "beta_regularizer": null, "gamma_regularizer": null, "beta_constraint": null, "gamma_constraint": null}, "name": "conv4_block12_1_bn", "inbound_nodes": [[["conv4_block12_1_conv", 0, 0, {}]]]}, {"class_name": "Activation", "config": {"name": "conv4_block12_1_relu", "trainable": false, "dtype": "float32", "activation": "relu"}, "name": "conv4_block12_1_relu", "inbound_nodes": [[["conv4_block12_1_bn", 0, 0, {}]]]}, {"class_name": "ZeroPadding2D", "config": {"name": "conv4_block12_2_pad", "trainable": false, "dtype": "float32", "padding": [[1, 1], [1, 1]], "data_format": "channels_last"}, "name": "conv4_block12_2_pad", "inbound_nodes": [[["conv4_block12_1_relu", 0, 0, {}]]]}, {"class_name": "Conv2D", "config": {"name": "conv4_block12_2_conv", "trainable": false, "dtype": "float32", "filters": 256, "kernel_size": [3, 3], "strides": [1, 1], "padding": "valid", "data_format": "channels_last", "dilation_rate": [1, 1], "groups": 1, "activation": "linear", "use_bias": false, "kernel_initializer": {"module": "keras.initializers", "class_name": "GlorotUniform", "config": {"seed": null}, "registered_name": null}, "bias_initializer": {"module": "keras.initializers", "class_name": "Zeros", "config": {}, "registered_name": null}, "kernel_regularizer": null, "bias_regularizer": null, "activity_regularizer": null, "kernel_constraint": null, "bias_constraint": null}, "name": "conv4_block12_2_conv", "inbound_nodes": [[["conv4_block12_2_pad", 0, 0, {}]]]}, {"class_name": "BatchNormalization", "config": {"name": "conv4_block12_2_bn", "trainable": false, "dtype": "float32", "axis": [3], "momentum": 0.99, "epsilon": 1.001e-05, "center": true, "scale": true, "beta_initializer": {"module": "keras.initializers", "class_name": "Zeros", "config": {}, "registered_name": null}, "gamma_initializer": {"module": "keras.initializers", "class_name": "Ones", "config": {}, "registered_name": null}, "moving_mean_initializer": {"module": "keras.initializers", "class_name": "Zeros", "config": {}, "registered_name": null}, "moving_variance_initializer": {"module": "keras.initializers", "class_name": "Ones", "config": {}, "registered_name": null}, "beta_regularizer": null, "gamma_regularizer": null, "beta_constraint": null, "gamma_constraint": null}, "name": "conv4_block12_2_bn", "inbound_nodes": [[["conv4_block12_2_conv", 0, 0, {}]]]}, {"class_name": "Activation", "config": {"name": "conv4_block12_2_relu", "trainable": false, "dtype": "float32", "activation": "relu"}, "name": "conv4_block12_2_relu", "inbound_nodes": [[["conv4_block12_2_bn", 0, 0, {}]]]}, {"class_name": "Conv2D", "config": {"name": "conv4_block12_3_conv", "trainable": false, "dtype": "float32", "filters": 1024, "kernel_size": [1, 1], "strides": [1, 1], "padding": "valid", "data_format": "channels_last", "dilation_rate": [1, 1], "groups": 1, "activation": "linear", "use_bias": true, "kernel_initializer": {"module": "keras.initializers", "class_name": "GlorotUniform", "config": {"seed": null}, "registered_name": null}, "bias_initializer": {"module": "keras.initializers", "class_name": "Zeros", "config": {}, "registered_name": null}, "kernel_regularizer": null, "bias_regularizer": null, "activity_regularizer": null, "kernel_constraint": null, "bias_constraint": null}, "name": "conv4_block12_3_conv", "inbound_nodes": [[["conv4_block12_2_relu", 0, 0, {}]]]}, {"class_name": "Add", "config": {"name": "conv4_block12_out", "trainable": false, "dtype": "float32"}, "name": "conv4_block12_out", "inbound_nodes": [[["conv4_block11_out", 0, 0, {}], ["conv4_block12_3_conv", 0, 0, {}]]]}, {"class_name": "BatchNormalization", "config": {"name": "conv4_block13_preact_bn", "trainable": false, "dtype": "float32", "axis": [3], "momentum": 0.99, "epsilon": 1.001e-05, "center": true, "scale": true, "beta_initializer": {"module": "keras.initializers", "class_name": "Zeros", "config": {}, "registered_name": null}, "gamma_initializer": {"module": "keras.initializers", "class_name": "Ones", "config": {}, "registered_name": null}, "moving_mean_initializer": {"module": "keras.initializers", "class_name": "Zeros", "config": {}, "registered_name": null}, "moving_variance_initializer": {"module": "keras.initializers", "class_name": "Ones", "config": {}, "registered_name": null}, "beta_regularizer": null, "gamma_regularizer": null, "beta_constraint": null, "gamma_constraint": null}, "name": "conv4_block13_preact_bn", "inbound_nodes": [[["conv4_block12_out", 0, 0, {}]]]}, {"class_name": "Activation", "config": {"name": "conv4_block13_preact_relu", "trainable": false, "dtype": "float32", "activation": "relu"}, "name": "conv4_block13_preact_relu", "inbound_nodes": [[["conv4_block13_preact_bn", 0, 0, {}]]]}, {"class_name": "Conv2D", "config": {"name": "conv4_block13_1_conv", "trainable": false, "dtype": "float32", "filters": 256, "kernel_size": [1, 1], "strides": [1, 1], "padding": "valid", "data_format": "channels_last", "dilation_rate": [1, 1], "groups": 1, "activation": "linear", "use_bias": false, "kernel_initializer": {"module": "keras.initializers", "class_name": "GlorotUniform", "config": {"seed": null}, "registered_name": null}, "bias_initializer": {"module": "keras.initializers", "class_name": "Zeros", "config": {}, "registered_name": null}, "kernel_regularizer": null, "bias_regularizer": null, "activity_regularizer": null, "kernel_constraint": null, "bias_constraint": null}, "name": "conv4_block13_1_conv", "inbound_nodes": [[["conv4_block13_preact_relu", 0, 0, {}]]]}, {"class_name": "BatchNormalization", "config": {"name": "conv4_block13_1_bn", "trainable": false, "dtype": "float32", "axis": [3], "momentum": 0.99, "epsilon": 1.001e-05, "center": true, "scale": true, "beta_initializer": {"module": "keras.initializers", "class_name": "Zeros", "config": {}, "registered_name": null}, "gamma_initializer": {"module": "keras.initializers", "class_name": "Ones", "config": {}, "registered_name": null}, "moving_mean_initializer": {"module": "keras.initializers", "class_name": "Zeros", "config": {}, "registered_name": null}, "moving_variance_initializer": {"module": "keras.initializers", "class_name": "Ones", "config": {}, "registered_name": null}, "beta_regularizer": null, "gamma_regularizer": null, "beta_constraint": null, "gamma_constraint": null}, "name": "conv4_block13_1_bn", "inbound_nodes": [[["conv4_block13_1_conv", 0, 0, {}]]]}, {"class_name": "Activation", "config": {"name": "conv4_block13_1_relu", "trainable": false, "dtype": "float32", "activation": "relu"}, "name": "conv4_block13_1_relu", "inbound_nodes": [[["conv4_block13_1_bn", 0, 0, {}]]]}, {"class_name": "ZeroPadding2D", "config": {"name": "conv4_block13_2_pad", "trainable": false, "dtype": "float32", "padding": [[1, 1], [1, 1]], "data_format": "channels_last"}, "name": "conv4_block13_2_pad", "inbound_nodes": [[["conv4_block13_1_relu", 0, 0, {}]]]}, {"class_name": "Conv2D", "config": {"name": "conv4_block13_2_conv", "trainable": false, "dtype": "float32", "filters": 256, "kernel_size": [3, 3], "strides": [1, 1], "padding": "valid", "data_format": "channels_last", "dilation_rate": [1, 1], "groups": 1, "activation": "linear", "use_bias": false, "kernel_initializer": {"module": "keras.initializers", "class_name": "GlorotUniform", "config": {"seed": null}, "registered_name": null}, "bias_initializer": {"module": "keras.initializers", "class_name": "Zeros", "config": {}, "registered_name": null}, "kernel_regularizer": null, "bias_regularizer": null, "activity_regularizer": null, "kernel_constraint": null, "bias_constraint": null}, "name": "conv4_block13_2_conv", "inbound_nodes": [[["conv4_block13_2_pad", 0, 0, {}]]]}, {"class_name": "BatchNormalization", "config": {"name": "conv4_block13_2_bn", "trainable": false, "dtype": "float32", "axis": [3], "momentum": 0.99, "epsilon": 1.001e-05, "center": true, "scale": true, "beta_initializer": {"module": "keras.initializers", "class_name": "Zeros", "config": {}, "registered_n…
6], "dtype": "float32"}, {"name": "conv4_block11_2_conv/kernel", "shape": [3, 3, 256, 256], "dtype": "float32"}, {"name": "conv4_block11_3_conv/kernel", "shape": [1, 1, 256, 1024], "dtype": "float32"}, {"name": "conv4_block11_3_conv/bias", "shape": [1024], "dtype": "float32"}, {"name": "conv4_block11_preact_bn/gamma", "shape": [1024], "dtype": "float32"}, {"name": "conv4_block11_preact_bn/beta", "shape": [1024], "dtype": "float32"}, {"name": "conv4_block11_preact_bn/moving_mean", "shape": [1024], "dtype": "float32"}, {"name": "conv4_block11_preact_bn/moving_variance", "shape": [1024], "dtype": "float32"}, {"name": "conv4_block12_1_bn/gamma", "shape": [256], "dtype": "float32"}, {"name": "conv4_block12_1_bn/beta", "shape": [256], "dtype": "float32"}, {"name": "conv4_block12_1_bn/moving_mean", "shape": [256], "dtype": "float32"}, {"name": "conv4_block12_1_bn/moving_variance", "shape": [256], "dtype": "float32"}, {"name": "conv4_block12_1_conv/kernel", "shape": [1, 1, 1024, 256], "dtype": "float32"}, {"name": "conv4_block12_2_bn/gamma", "shape": [256], "dtype": "float32"}, {"name": "conv4_block12_2_bn/beta", "shape": [256], "dtype": "float32"}, {"name": "conv4_block12_2_bn/moving_mean", "shape": [256], "dtype": "float32"}, {"name": "conv4_block12_2_bn/moving_variance", "shape": [256], "dtype": "float32"}, {"name": "conv4_block12_2_conv/kernel", "shape": [3, 3, 256, 256], "dtype": "float32"}, {"name": "conv4_block12_3_conv/kernel", "shape": [1, 1, 256, 1024], "dtype": "float32"}, {"name": "conv4_block12_3_conv/bias", "shape": [1024], "dtype": "float32"}, {"name": "conv4_block12_preact_bn/gamma", "shape": [1024], "dtype": "float32"}, {"name": "conv4_block12_preact_bn/beta", "shape": [1024], "dtype": "float32"}, {"name": "conv4_block12_preact_bn/moving_mean", "shape": [1024], "dtype": "float32"}, {"name": "conv4_block12_preact_bn/moving_variance", "shape": [1024], "dtype": "float32"}, {"name": "conv4_block13_1_bn/gamma", "shape": [256], "dtype": "float32"}, {"name": "conv4_block13_1_bn/beta", "shape": [256], "dtype": "float32"}, {"name": "conv4_block13_1_bn/moving_mean", "shape": [256], "dtype": "float32"}, {"name": "conv4_block13_1_bn/moving_variance", "shape": [256], "dtype": "float32"}, {"name": "conv4_block13_1_conv/kernel", "shape": [1, 1, 1024, 256], "dtype": "float32"}, {"name": "conv4_block13_2_bn/gamma", "shape": [256], "dtype": "float32"}, {"name": "conv4_block13_2_bn/beta", "shape": [256], "dtype": "float32"}, {"name": "conv4_block13_2_bn/moving_mean", "shape": [256], "dtype": "float32"}, {"name": "conv4_block13_2_bn/moving_variance", "shape": [256], "dtype": "float32"}, {"name": "conv4_block13_2_conv/kernel", "shape": [3, 3, 256, 256], "dtype": "float32"}, {"name": "conv4_block13_3_conv/kernel", "shape": [1, 1, 256, 1024], "dtype": "float32"}, {"name": "conv4_block13_3_conv/bias", "shape": [1024], "dtype": "float32"}, {"name": "conv4_block13_preact_bn/gamma", "shape": [1024], "dtype": "float32"}, {"name": "conv4_block13_preact_bn/beta", "shape": [1024], "dtype": "float32"}, {"name": "conv4_block13_preact_bn/moving_mean", "shape": [1024], "dtype": "float32"}, {"name": "conv4_block13_preact_bn/moving_variance", "shape": [1024], "dtype": "float32"}, {"name": "conv4_block14_1_bn/gamma", "shape": [256], "dtype": "float32"}, {"name": "conv4_block14_1_bn/beta", "shape": [256], "dtype": "float32"}, {"name": "conv4_block14_1_bn/moving_mean", "shape": [256], "dtype": "float32"}, {"name": "conv4_block14_1_bn/moving_variance", "shape": [256], "dtype": "float32"}, {"name": "conv4_block14_1_conv/kernel", "shape": [1, 1, 1024, 256], "dtype": "float32"}, {"name": "conv4_block14_2_bn/gamma", "shape": [256], "dtype": "float32"}, {"name": "conv4_block14_2_bn/beta", "shape": [256], "dtype": "float32"}, {"name": "conv4_block14_2_bn/moving_mean", "shape": [256], "dtype": "float32"}, {"name": "conv4_block14_2_bn/moving_variance", "shape": [256], "dtype": "float32"}, {"name": "conv4_block14_2_conv/kernel", "shape": [3, 3, 256, 256], "dtype": "float32"}, {"name": "conv4_block14_3_conv/kernel", "shape": [1, 1, 256, 1024], "dtype": "float32"}, {"name": "conv4_block14_3_conv/bias", "shape": [1024], "dtype": "float32"}, {"name": "conv4_block14_preact_bn/gamma", "shape": [1024], "dtype": "float32"}, {"name": "conv4_block14_preact_bn/beta", "shape": [1024], "dtype": "float32"}, {"name": "conv4_block14_preact_bn/moving_mean", "shape": [1024], "dtype": "float32"}, {"name": "conv4_block14_preact_bn/moving_variance", "shape": [1024], "dtype": "float32"}, {"name": "conv4_block15_1_bn/gamma", "shape": [256], "dtype": "float32"}, {"name": "conv4_block15_1_bn/beta", "shape": [256], "dtype": "float32"}, {"name": "conv4_block15_1_bn/moving_mean", "shape": [256], "dtype": "float32"}, {"name": "conv4_block15_1_bn/moving_variance", "shape": [256], "dtype": "float32"}, {"name": "conv4_block15_1_conv/kernel", "shape": [1, 1, 1024, 256], "dtype": "float32"}, {"name": "conv4_block15_2_bn/gamma", "shape": [256], "dtype": "float32"}, {"name": "conv4_block15_2_bn/beta", "shape": [256], "dtype": "float32"}, {"name": "conv4_block15_2_bn/moving_mean", "shape": [256], "dtype": "float32"}, {"name": "conv4_block15_2_bn/moving_variance", "shape": [256], "dtype": "float32"}, {"name": "conv4_block15_2_conv/kernel", "shape": [3, 3, 256, 256], "dtype": "float32"}, {"name": "conv4_block15_3_conv/kernel", "shape": [1, 1, 256, 1024], "dtype": "float32"}, {"name": "conv4_block15_3_conv/bias", "shape": [1024], "dtype": "float32"}, {"name": "conv4_block15_preact_bn/gamma", "shape": [1024], "dtype": "float32"}, {"name": "conv4_block15_preact_bn/beta", "shape": [1024], "dtype": "float32"}, {"name": "conv4_block15_preact_bn/moving_mean", "shape": [1024], "dtype": "float32"}, {"name": "conv4_block15_preact_bn/moving_variance", "shape": [1024], "dtype": "float32"}, {"name": "conv4_block16_1_bn/gamma", "shape": [256], "dtype": "float32"}, {"name": "conv4_block16_1_bn/beta", "shape": [256], "dtype": "float32"}, {"name": "conv4_block16_1_bn/moving_mean", "shape": [256], "dtype": "float32"}, {"name": "conv4_block16_1_bn/moving_variance", "shape": [256], "dtype": "float32"}, {"name": "conv4_block16_1_conv/kernel", "shape": [1, 1, 1024, 256], "dtype": "float32"}, {"name": "conv4_block16_2_bn/gamma", "shape": [256], "dtype": "float32"}, {"name": "conv4_block16_2_bn/beta", "shape": [256], "dtype": "float32"}, {"name": "conv4_block16_2_bn/moving_mean", "shape": [256], "dtype": "float32"}, {"name": "conv4_block16_2_bn/moving_variance", "shape": [256], "dtype": "float32"}, {"name": "conv4_block16_2_conv/kernel", "shape": [3, 3, 256, 256], "dtype": "float32"}, {"name": "conv4_block16_3_conv/kernel", "shape": [1, 1, 256, 1024], "dtype": "float32"}, {"name": "conv4_block16_3_conv/bias", "shape": [1024], "dtype": "float32"}, {"name": "conv4_block16_preact_bn/gamma", "shape": [1024], "dtype": "float32"}, {"name": "conv4_block16_preact_bn/beta", "shape": [1024], "dtype": "float32"}, {"name": "conv4_block16_preact_bn/moving_mean", "shape": [1024], "dtype": "float32"}, {"name": "conv4_block16_preact_bn/moving_variance", "shape": [1024], "dtype": "float32"}, {"name": "conv4_block17_1_bn/gamma", "shape": [256], "dtype": "float32"}, {"name": "conv4_block17_1_bn/beta", "shape": [256], "dtype": "float32"}, {"name": "conv4_block17_1_bn/moving_mean", "shape": [256], "dtype": "float32"}, {"name": "conv4_block17_1_bn/moving_variance", "shape": [256], "dtype": "float32"}, {"name": "conv4_block17_1_conv/kernel", "shape": [1, 1, 1024, 256], "dtype": "float32"}, {"name": "conv4_block17_2_bn/gamma", "shape": [256], "dtype": "float32"}, {"name": "conv4_block17_2_bn/beta", "shape": [256], "dtype": "float32"}, {"name": "conv4_block17_2_bn/moving_mean", "shape": [256], "dtype": "float32"}, {"name": "conv4_block17_2_bn/moving_variance", "shape": [256], "dtype": "float32"}, {"name": "conv4_block17_2_conv/kernel", "shape": [3, 3, 256, 256], "dtype": "float32"}, {"name": "conv4_block17_3_conv/kernel", "shape": [1, 1, 256, 1024], "dtype": "float32"}, {"name": "conv4_block17_3_conv/bias", "shape": [1024], "dtype": "float32"}, {"name": "conv4_block17_preact_bn/gamma", "shape": [1024], "dtype": "float32"}, {"name": "conv4_block17_preact_bn/beta", "shape": [1024], "dtype": "float32"}, {"name": "conv4_block17_preact_bn/moving_mean", "shape": [1024], "dtype": "float32"}, {"name": "conv4_block17_preact_bn/moving_variance", "shape": [1024], "dtype": "float32"}, {"name": "conv4_block18_1_bn/gamma", "shape": [256], "dtype": "float32"}, {"name": "conv4_block18_1_bn/beta", "shape": [256], "dtype": "float32"}, {"name": "conv4_block18_1_bn/moving_mean", "shape": [256], "dtype": "float32"}, {"name": "conv4_block18_1_bn/moving_variance", "shape": [256], "dtype": "float32"}, {"name": "conv4_block18_1_conv/kernel", "shape": [1, 1, 1024, 256], "dtype": "float32"}, {"name": "conv4_block18_2_bn/gamma", "shape": [256], "dtype": "float32"}, {"name": "conv4_block18_2_bn/beta", "shape": [256], "dtype": "float32"}, {"name": "conv4_block18_2_bn/moving_mean", "shape": [256], "dtype": "float32"}, {"name": "conv4_block18_2_bn/moving_variance", "shape": [256], "dtype": "float32"}, {"name": "conv4_block18_2_conv/kernel", "shape": [3, 3, 256, 256], "dtype": "float32"}, {"name": "conv4_block18_3_conv/kernel", "shape": [1, 1, 256, 1024], "dtype": "float32"}, {"name": "conv4_block18_3_conv/bias", "shape": [1024], "dtype": "float32"}, {"name": "conv4_block18_preact_bn/gamma", "shape": [1024], "dtype": "float32"}, {"name": "conv4_block18_preact_bn/beta", "shape": [1024], "dtype": "float32"}, {"name": "conv4_block18_preact_bn/moving_mean", "shape": [1024], "dtype": "float32"}, {"name": "conv4_block18_preact_bn/moving_variance", "shape": [1024], "dtype": "float32"}, {"name": "conv4_block19_1_bn/gamma", "shape": [256], "dtype": "float32"}, {"name": "conv4_block19_1_bn/beta", "shape": [256], "dtype": "float32"}, {"name": "conv4_block19_1_bn/moving_mean", "shape": [256], "dtype": "float32"}, {"name": "conv4_block19_1_bn/moving_variance", "shape": [256], "dtype": "float32"}, {"name": "conv4_block19_1_conv/kernel", "shape": [1, 1, 1024, 256], "dtype": "float32"}, {"name": "conv4_block19_2_bn/gamma", "shape": [256], "dtype": "float32"}, {"name": "conv4_block19_2_bn/beta", "shape": [256], "dtype": "float32"}, {"name": "conv4_block19_2_bn/moving_mean", "shape": [256], "dtype": "float32"}, {"name": "conv4_block19_2_bn/moving_variance", "shape": [256], "dtype": "float32"}, {"name": "conv4_block19_2_conv/kernel", "shape": [3, 3, 256, 256], "dtype": "float32"}, {"name": "conv4_block19_3_conv/kernel", "shape": [1, 1, 256, 1024], "dtype": "float32"}, {"name": "conv4_block19_3_conv/bias", "shape": [1024], "dtype": "float32"}, {"name": "conv4_block19_preact_bn/gamma", "shape": [1024], "dtype": "float32"}, {"name": "conv4_block19_preact_bn/beta", "shape": [1024], "dtype": "float32"}, {"name": "conv4_block19_preact_bn/moving_mean", "shape": [1024], "dtype": "float32"}, {"name": "conv4_block19_preact_bn/moving_variance", "shape": [1024], "dtype": "float32"}, {"name": "conv4_block1_0_conv/kernel", "shape": [1, 1, 512, 1024], "dtype": "float32"}, {"name": "conv4_block1_0_conv/bias", "shape": [1024], "dtype": "float32"}, {"name": "conv4_block1_1_bn/gamma", "shape": [256], "dtype": "float32"}, {"name": "conv4_block1_1_bn/beta", "shape": [256], "dtype": "float32"}, {"name": "conv4_block1_1_bn/moving_mean", "shape": [256], "dtype": "float32"}, {"name": "conv4_block1_1_bn/moving_variance", "shape": [256], "dtype": "float32"}, {"name": "conv4_block1_1_conv/kernel", "shape": [1, 1, 512, 256], "dtype": "float32"}, {"name": "conv4_block1_2_bn/gamma", "shape": [256], "dtype": "float32"}, {"name": "conv4_block1_2_bn/beta", "shape": [256], "dtype": "float32"}, {"name": "conv4_block1_2_bn/moving_mean", "shape": [256], "dtype": "float32"}, {"name": "conv4_block1_2_bn/moving_variance", "shape": [256], "dtype": "float32"}, {"name": "conv4_block1_2_conv/kernel", "shape": [3, 3, 256, 256], "dtype": "float32"}, {"name": "conv4_block1_3_conv/kernel", "shape": [1, 1, 256, 1024], "dtype": "float32"}, {"name": "conv4_block1_3_conv/bias", "shape": [1024], "dtype": "float32"}, {"name": "conv4_block1_preact_bn/gamma", "shape": [512], "dtype": "float32"}, {"name": "conv4_block1_preact_bn/beta", "shape": [512], "dtype": "float32"}, {"name": "conv4_block1_preact_bn/moving_mean", "shape": [512], "dtype": "float32"}, {"name": "conv4_block1_preact_bn/moving_variance", "shape": [512], "dtype": "float32"}, {"name": "conv4_block20_1_bn/gamma", "shape": [256], "dtype": "float32"}, {"name": "conv4_block20_1_bn/beta", "shape": [256], "dtype": "float32"}, {"name": "conv4_block20_1_bn/moving_mean", "shape": [256], "dtype": "float32"}, {"name": "conv4_block20_1_bn/moving_variance", "shape": [256], "dtype": "float32"}, {"name": "conv4_block20_1_conv/kernel", "shape": [1, 1, 1024, 256], "dtype": "float32"}, {"name": "conv4_block20_2_bn/gamma", "shape": [256], "dtype": "float32"}, {"name": "conv4_block20_2_bn/beta", "shape": [256], "dtype": "float32"}, {"name": "conv4_block20_2_bn/moving_mean", "shape": [256], "dtype": "float32"}, {"name": "conv4_block20_2_bn/moving_variance", "shape": [256], "dtype": "float32"}, {"name": "conv4_block20_2_conv/kernel", "shape": [3, 3, 256, 256], "dtype": "float32"}, {"name": "conv4_block20_3_conv/kernel", "shape": [1, 1, 256, 1024], "dtype": "float32"}, {"name": "conv4_block20_3_conv/bias", "shape": [1024], "dtype": "float32"}, {"name": "conv4_block20_preact_bn/gamma", "shape": [1024], "dtype": "float32"}, {"name": "conv4_block20_preact_bn/beta", "shape": [1024], "dtype": "float32"}, {"name": "conv4_block20_preact_bn/moving_mean", "shape": [1024], "dtype": "float32"}, {"name": "conv4_block20_preact_bn/moving_variance", "shape": [1024], "dtype": "float32"}, {"name": "conv4_block21_1_bn/gamma", "shape": [256], "dtype": "float32"}, {"name": "conv4_block21_1_bn/beta", "shape": [256], "dtype": "float32"}, {"name": "conv4_block21_1_bn/moving_mean", "shape": [256], "dtype": "float32"}, {"name": "conv4_block21_1_bn/moving_variance", "shape": [256], "dtype": "float32"}, {"name": "conv4_block21_1_conv/kernel", "shape": [1, 1, 1024, 256], "dtype": "float32"}, {"name": "conv4_block21_2_bn/gamma", "shape": [256], "dtype": "float32"}, {"name": "conv4_block21_2_bn/beta", "shape": [256], "dtype": "float32"}, {"name": "conv4_block21_2_bn/moving_mean", "shape": [256], "dtype": "float32"}, {"name": "conv4_block21_2_bn/moving_variance", "shape": [256], "dtype": "float32"}, {"name": "conv4_block21_2_conv/kernel", "shape": [3, 3, 256, 256], "dtype": "float32"}, {"name": "conv4_block21_3_conv/kernel", "shape": [1, 1, 256, 1024], "dtype": "float32"}, {"name": "conv4_block21_3_conv/bias", "shape": [1024], "dtype": "float32"}, {"name": "conv4_block21_preact_bn/gamma", "shape": [1024], "dtype": "float32"}, {"name": "conv4_block21_preact_bn/beta", "shape": [1024], "dtype": "float32"}, {"name": "conv4_block21_preact_bn/moving_mean", "shape": [1024], "dtype": "float32"}, {"name": "conv4_block21_preact_bn/moving_variance", "shape": [1024], "dtype": "float32"}, {"name": "conv4_block22_1_bn/gamma", "shape": [256], "dtype": "float32"}, {"name": "conv4_block22_1_bn/beta", "shape": [256], "dtype": "float32"}, {"name": "conv4_block22_1_bn/moving_mean", "shape": [256], "dtype": "float32"}, {"name": "conv4_block22_1_bn/moving_variance", "shape": [256], "dtype": "float32"}, {"name": "conv4_block22_1_conv/kernel", "shape": [1, 1, 1024, 256], "dtype": "float32"}, {"name": "conv4_block22_2_bn/gamma", "shape": [256], "dtype": "float32"}, {"name": "conv4_block22_2_bn/beta", "shape": [256], "dtype": "float32"}, {"name": "conv4_block22_2_bn/moving_mean", "shape": [256], "dtype": "float32"}, {"name": "conv4_block22_2_bn/moving_variance", "shape": [256], "dtype": "float32"}, {"name": "conv4_block22_2_conv/kernel", "shape": [3, 3, 256, 256], "dtype": "float32"}, {"name": "conv4_block22_3_conv/kernel", "shape": [1, 1, 256, 1024], "dtype": "float32"}, {"name": "conv4_block22_3_conv/bias", "shape": [1024], "dtype": "float32"}, {"name": "conv4_block22_preact_bn/gamma", "shape": [1024], "dtype": "float32"}, {"name": "conv4_block22_preact_bn/beta", "shape": [1024], "dtype": "float32"}, {"name": "conv4_block22_preact_bn/moving_mean", "shape": [1024], "dtype": "float32"}, {"name": "conv4_block22_preact_bn/moving_variance", "shape": [1024], "dtype": "float32"}, {"name": "conv4_block23_1_bn/gamma", "shape": [256], "dtype": "float32"}, {"name": "conv4_block23_1_bn/beta", "shape": [256], "dtype": "float32"}, {"name": "conv4_block23_1_bn/moving_mean", "shape": [256], "dtype": "float32"}, {"name": "conv4_block23_1_bn/moving_variance", "shape": [256], "dtype": "float32"}, {"name": "conv4_block23_1_conv/kernel", "shape": [1, 1, 1024, 256], "dtype": "float32"}, {"name": "conv4_block23_2_bn/gamma", "shape": [256], "dtype": "float32"}, {"name": "conv4_block23_2_bn/beta", "shape": [256], "dtype": "float32"}, {"name": "conv4_block23_2_bn/moving_mean", "shape": [256], "dtype": "float32"}, {"name": "conv4_block23_2_bn/moving_variance", "shape": [256], "dtype": "float32"}, {"name": "conv4_block23_2_conv/kernel", "shape": [3, 3, 256, 256], "dtype": "float32"}, {"name": "conv4_block23_3_conv/kernel", "shape": [1, 1, 256, 1024], "dtype": "float32"}, {"name": "conv4_block23_3_conv/bias", "shape": [1024], "dtype": "float32"}, {"name": "conv4_block23_preact_bn/gamma", "shape": [1024], "dtype": "float32"}, {"name": "conv4_block23_preact_bn/beta", "shape": [1024], "dtype": "float32"}, {"name": "conv4_block23_preact_bn/moving_mean", "shape": [1024], "dtype": "float32"}, {"name": "conv4_block23_preact_bn/moving_variance", "shape": [1024], "dtype": "float32"}, {"name": "conv4_block24_1_bn/gamma", "shape": [256], "dtype": "float32"}, {"name": "conv4_block24_1_bn/beta", "shape": [256], "dtype": "float32"}, {"name": "conv4_block24_1_bn/moving_mean", "shape": [256], "dtype": "float32"}, {"name": "conv4_block24_1_bn/moving_variance", "shape": [256], "dtype": "float32"}, {"name": "conv4_block24_1_conv/kernel", "shape": [1, 1, 1024, 256], "dtype": "float32"}, {"name": "conv4_block24_2_bn/gamma", "shape": [256], "dtype": "float32"}, {"name": "conv4_block24_2_bn/beta", "shape": [256], "dtype": "float32"}, {"name": "conv4_block24_2_bn/moving_mean", "shape": [256], "dtype": "float32"}, {"name": "conv4_block24_2_bn/moving_variance", "shape": [256], "dtype": "float32"}, {"name": "conv4_block24_2_conv/kernel", "shape": [3, 3, 256, 256], "dtype": "float32"}, {"name": "conv4_block24_3_conv/kernel", "shape": [1, 1, 256, 1024], "dtype": "float32"}, {"name": "conv4_block24_3_conv/bias", "shape": [1024], "dtype": "float32"}, {"name": "conv4_block24_preact_bn/gamma", "shape": [1024], "dtype": "float32"}, {"name": "conv4_block24_preact_bn/beta", "shape": [1024], "dtype": "float32"}, {"name": "conv4_block24_preact_bn/moving_mean", "shape": [1024], "dtype": "float32"}, {"name": "conv4_block24_preact_bn/moving_variance", "shape": [1024], "dtype": "float32"}, {"name": "conv4_block25_1_bn/gamma", "shape": [256], "dtype": "float32"}, {"name": "conv4_block25_1_bn/beta", "shape": [256], "dtype": "float32"}, {"name": "conv4_block25_1_bn/moving_mean", "shape": [256], "dtype": "float32"}, {"name": "conv4_block25_1_bn/moving_variance", "shape": [256], "dtype": "float32"}, {"name": "conv4_block25_1_conv/kernel", "shape": [1, 1, 1024, 256], "dtype": "float32"}, {"name": "conv4_block25_2_bn/gamma", "shape": [256], "dtype": "float32"}, {"name": "conv4_block25_2_bn/beta", "shape": [256], "dtype": "float32"}, {"name": "conv4_block25_2_bn/moving_mean", "shape": [256], "dtype": "float32"}, {"name": "conv4_block25_2_bn/moving_variance", "shape": [256], "dtype": "float32"}, {"name": "conv4_block25_2_conv/kernel", "shape": [3, 3, 256, 256], "dtype": "float32"}, {"name": "conv4_block25_3_conv/kernel", "shape": [1, 1, 256, 1024], "dtype": "float32"}, {"name": "conv4_block25_3_conv/bias", "shape": [1024], "dtype": "float32"}, {"name": "conv4_block25_preact_bn/gamma", "shape": [1024], "dtype": "float32"}, {"name": "conv4_block25_preact_bn/beta", "shape": [1024], "dtype": "float32"}, {"name": "conv4_block25_preact_bn/moving_mean", "shape": [1024], "dtype": "float32"}, {"name": "conv4_block25_preact_bn/moving_variance", "shape": [1024], "dtype": "float32"}, {"name": "conv4_block26_1_bn/gamma", "shape": [256], "dtype": "float32"}, {"name": "conv4_block26_1_bn/beta", "shape": [256], "dtype": "float32"}, {"name": "conv4_block26_1_bn/moving_mean", "shape": [256], "dtype": "float32"}, {"name": "conv4_block26_1_bn/moving_variance", "shape": [256], "dtype": "float32"}, {"name": "conv4_block26_1_conv/kernel", "shape": [1, 1, 1024, 256], "dtype": "float32"}, {"name": "conv4_block26_2_bn/gamma", "shape": [256], "dtype": "float32"}, {"name": "conv4_block26_2_bn/beta", "shape": [256], "dtype": "float32"}, {"name": "conv4_block26_2_bn/moving_mean", "shape": [256], "dtype": "float32"}, {"name": "conv4_block26_2_bn/moving_variance", "shape": [256], "dtype": "float32"}, {"name": "conv4_block26_2_conv/kernel", "shape": [3, 3, 256, 256], "dtype": "float32"}, {"name": "conv4_block26_3_conv/kernel", "shape": [1, 1, 256, 1024], "dtype": "float32"}, {"name": "conv4_block26_3_conv/bias", "shape": [1024], "dtype": "float32"}, {"name": "conv4_block26_preact_bn/gamma", "shape": [1024], "dtype": "float32"}, {"name": "conv4_block26_preact_bn/beta", "shape": [1024], "dtype": "float32"}, {"name": "conv4_block26_preact_bn/moving_mean", "shape": [1024], "dtype": "float32"}, {"name": "conv4_block26_preact_bn/moving_variance", "shape": [1024], "dtype": "float32"}, {"name": "conv4_block27_1_bn/gamma", "shape": [256], "dtype": "float32"}, {"name": "conv4_block27_1_bn/beta", "shape": [256], "dtype": "float32"}, {"name": "conv4_block27_1_bn/moving_mean", "shape": [256], "dtype": "float32"}, {"name": "conv4_block27_1_bn/moving_variance", "shape": [256], "dtype": "float32"}, {"name": "conv4_block27_1_conv/kernel", "shape": [1, 1, 1024, 256], "dtype": "float32"}, {"name": "conv4_block27_2_bn/gamma", "shape": [256], "dtype": "float32"}, {"name": "conv4_block27_2_bn/beta", "shape": [256], "dtype": "float32"}, {"name": "conv4_block27_2_bn/moving_mean", "shape": [256], "dtype": "float32"}, {"name": "conv4_block27_2_bn/moving_variance", "shape": [256], "dtype": "float32"}, {"name": "conv4_block27_2_conv/kernel", "shape": [3, 3, 256, 256], "dtype": "float32"}, {"name": "conv4_block27_3_conv/kernel", "shape": [1, 1, 256, 1024], "dtype": "float32"}, {"name": "conv4_block27_3_conv/bias", "shape": [1024], "dtype": "float32"}, {"name": "conv4_block27_preact_bn/gamma", "shape": [1024], "dtype": "float32"}, {"name": "conv4_block27_preact_bn/beta", "shape": [1024], "dtype": "float32"}, {"name": "conv4_block27_preact_bn/moving_mean", "shape": [1024], "dtype": "float32"}, {"name": "conv4_block27_preact_bn/moving_variance", "shape": [1024], "dtype": "float32"}, {"name": "conv4_block28_1_bn/gamma", "shape": [256], "dtype": "float32"}, {"name": "conv4_block28_1_bn/beta", "shape": [256], "dtype": "float32"}, {"name": "conv4_block28_1_bn/moving_mean", "shape": [256], "dtype": "float32"}, {"name": "conv4_block28_1_bn/moving_variance", "shape": [256], "dtype": "float32"}, {"name": "conv4_block28_1_conv/kernel", "shape": [1, 1, 1024, 256], "dtype": "float32"}, {"name": "conv4_block28_2_bn/gamma", "shape": [256], "dtype": "float32"}, {"name": "conv4_block28_2_bn/beta", "shape": [256], "dtype": "float32"}, {"name": "conv4_block28_2_bn/moving_mean", "shape": [256], "dtype": "float32"}, {"name": "conv4_block28_2_bn/moving_variance", "shape": [256], "dtype": "float32"}, {"name": "conv4_block28_2_conv/kernel", "shape": [3, 3, 256, 256], "dtype": "float32"}, {"name": "conv4_block28_3_conv/kernel", "shape": [1, 1, 256, 1024], "dtype": "float32"}, {"name": "conv4_block28_3_conv/bias", "shape": [1024], "dtype": "float32"}, {"name": "conv4_block28_preact_bn/gamma", "shape": [1024], "dtype": "float32"}, {"name": "conv4_block28_preact_bn/beta", "shape": [1024], "dtype": "float32"}, {"name": "conv4_block28_preact_bn/moving_mean", "shape": [1024], "dtype": "float32"}, {"name": "conv4_block28_preact_bn/moving_variance", "shape": [1024], "dtype": "float32"}, {"name": "conv4_block29_1_bn/gamma", "shape": [256], "dtype": "float32"}, {"name": "conv4_block29_1_bn/beta", "shape": [256], "dtype": "float32"}, {"name": "conv4_block29_1_bn/moving_mean", "shape": [256], "dtype": "float32"}, {"name": "conv4_block29_1_bn/moving_variance", "shape": [256], "dtype": "float32"}, {"name": "conv4_block29_1_conv/kernel", "shape": [1, 1, 1024, 256], "dtype": "float32"}, {"name": "conv4_block29_2_bn/gamma", "shape": [256], "dtype": "float32"}, {"name": "conv4_block29_2_bn/beta", "shape": [256], "dtype": "float32"}, {"name": "conv4_block29_2_bn/moving_mean", "shape": [256], "dtype": "float32"}, {"name": "conv4_block29_2_bn/moving_variance", "shape": [256], "dtype": "float32"}, {"name": "conv4_block29_2_conv/kernel", "shape": [3, 3, 256, 256], "dtype": "float32"}, {"name": "conv4_block29_3_conv/kernel", "shape": [1, 1, 256, 1024], "dtype": "float32"}, {"name": "conv4_block29_3_conv/bias", "shape": [1024], "dtype": "float32"}, {"name": "conv4_block29_preact_bn/gamma", "shape": [1024], "dtype": "float32"}, {"name": "conv4_block29_preact_bn/beta", "shape": [1024], "dtype": "float32"}, {"name": "conv4_block29_preact_bn/moving_mean", "shape": [1024], "dtype": "float32"}, {"name": "conv4_block29_preact_bn/moving_variance", "shape": [1024], "dtype": "float32"}, {"name": "conv4_block2_1_bn/gamma", "shape": [256], "dtype": "float32"}, {"name": "conv4_block2_1_bn/beta", "shape": [256], "dtype": "float32"}, {"name": "conv4_block2_1_bn/moving_mean", "shape": [256], "dtype": "float32"}, {"name": "conv4_block2_1_bn/moving_variance", "shape": [256], "dtype": "float32"}, {"name": "conv4_block2_1_conv/kernel", "shape": [1, 1, 1024, 256], "dtype": "float32"}, {"name": "conv4_block2_2_bn/gamma", "shape": [256], "dtype": "float32"}, {"name": "conv4_block2_2_bn/beta", "shape": [256], "dtype": "float32"}, {"name": "conv4_block2_2_bn/moving_mean", "shape": [256], "dtype": "float32"}, {"name": "conv4_block2_2_bn/moving_variance", "shape": [256], "dtype": "float32"}, {"name": "conv4_block2_2_conv/kernel", "shape": [3, 3, 256, 256], "dtype": "float32"}, {"name": "conv4_block2_3_conv/kernel", "shape": [1, 1, 256, 1024], "dtype": "float32"}, {"name": "conv4_block2_3_conv/bias", "shape": [1024], "dtype": "float32"}, {"name": "conv4_block2_preact_bn/gamma", "shape": [1024], "dtype": "float32"}, {"name": "conv4_block2_preact_bn/beta", "shape": [1024], "dtype": "float32"}, {"name": "conv4_block2_preact_bn/moving_mean", "shape": [1024], "dtype": "float32"}, {"name": "conv4_block2_preact_bn/moving_variance", "shape": [1024], "dtype": "float32"}, {"name": "conv4_block30_1_bn/gamma", "shape": [256], "dtype": "float32"}, {"name": "conv4_block30_1_bn/beta", "shape": [256], "dtype": "float32"}, {"name": "conv4_block30_1_bn/moving_mean", "shape": [256], "dtype": "float32"}, {"name": "conv4_block30_1_bn/moving_variance", "shape": [256], "dtype": "float32"}, {"name": "conv4_block30_1_conv/kernel", "shape": [1, 1, 1024, 256], "dtype": "float32"}, {"name": "conv4_block30_2_bn/gamma", "shape": [256], "dtype": "float32"}, {"name": "conv4_block30_2_bn/beta", "shape": [256], "dtype": "float32"}, {"name": "conv4_block30_2_bn/moving_mean", "shape": [256], "dtype": "float32"}, {"name": "conv4_block30_2_bn/moving_variance", "shape": [256], "dtype": "float32"}, {"name": "conv4_block30_2_conv/kernel", "shape": [3, 3, 256, 256], "dtype": "float32"}, {"name": "conv4_block30_3_conv/kernel", "shape": [1, 1, 256, 1024], "dtype": "float32"}, {"name": "conv4_block30_3_conv/bias", "shape": [1024], "dtype": "float32"}, {"name": "conv4_block30_preact_bn/gamma", "shape": [1024], "dtype": "float32"}, {"name": "conv4_block30_preact_bn/beta", "shape": [1024], "dtype": "float32"}, {"name": "conv4_block30_preact_bn/moving_mean", "shape": [1024], "dtype": "float32"}, {"name": "conv4_block30_preact_bn/moving_variance", "shape": [1024], "dtype": "float32"}, {"name": "conv4_block31_1_bn/gamma", "shape": [256], "dtype": "float32"}, {"name": "conv4_block31_1_bn/beta", "shape": [256], "dtype": "float32"}, {"name": "conv4_block31_1_bn/moving_mean", "shape": [256], "dtype": "float32"}, {"name": "conv4_block31_1_bn/moving_variance", "shape": [256], "dtype": "float32"}, {"name": "conv4_block31_1_conv/kernel", "shape": [1, 1, 1024, 256], "dtype": "float32"}, {"name": "conv4_block31_2_bn/gamma", "shape": [256], "dtype": "float32"}, {"name": "conv4_block31_2_bn/beta", "shape": [256], "dtype": "float32"}, {"name": "conv4_block31_2_bn/moving_mean", "shape": [256], "dtype": "float32"}, {"name": "conv4_block31_2_bn/moving_variance", "shape": [256], "dtype": "float32"}, {"name": "conv4_block31_2_conv/kernel", "shape": [3, 3, 256, 256], "dtype": "float32"}, {"name": "conv4_block31_3_conv/kernel", "shape": [1, 1, 256, 1024], "dtype": "float32"}, {"name": "conv4_block31_3_conv/bias", "shape": [1024], "dtype": "float32"}, {"name": "conv4_block31_preact_bn/gamma", "shape": [1024], "dtype": "float32"}, {"name": "conv4_block31_preact_bn/beta", "shape": [1024], "dtype": "float32"}, {"name": "conv4_block31_preact_bn/moving_mean", "shape": [1024], "dtype": "float32"}, {"name": "conv4_block31_preact_bn/moving_variance", "shape": [1024], "dtype": "float32"}, {"name": "conv4_block32_1_bn/gamma", "shape": [256], "dtype": "float32"}, {"name": "conv4_block32_1_bn/beta", "shape": [256], "dtype": "float32"}, {"name": "conv4_block32_1_bn/moving_mean", "shape": [256], "dtype": "float32"}, {"name": "conv4_block32_1_bn/moving_variance", "shape": [256], "dtype": "float32"}, {"name": "conv4_block32_1_conv/kernel", "shape": [1, 1, 1024, 256], "dtype": "float32"}, {"name": "conv4_block32_2_bn/gamma", "shape": [256], "dtype": "float32"}, {"name": "conv4_block32_2_bn/beta", "shape": [256], "dtype": "float32"}, {"name": "conv4_block32_2_bn/moving_mean", "shape": [256], "dtype": "float32"}, {"name": "conv4_block32_2_bn/moving_variance", "shape": [256], "dtype": "float32"}, {"name": "conv4_block32_2_conv/kernel", "shape": [3, 3, 256, 256], "dtype": "float32"}, {"name": "conv4_block32_3_conv/kernel", "shape": [1, 1, 256, 1024], "dtype": "float32"}, {"name": "conv4_block32_3_conv/bias", "shape": [1024], "dtype": "float32"}, {"name": "conv4_block32_preact_bn/gamma", "shape": [1024], "dtype": "float32"}, {"name": "conv4_block32_preact_bn/beta", "shape": [1024], "dtype": "float32"}, {"name": "conv4_block32_preact_bn/moving_mean", "shape": [1024], "dtype": "float32"}, {"name": "conv4_block32_preact_bn/moving_variance", "shape": [1024], "dtype": "float32"}, {"name": "conv4_block33_1_bn/gamma", "shape": [256], "dtype": "float32"}, {"name": "conv4_block33_1_bn/beta", "shape": [256], "dtype": "float32"}, {"name": "conv4_block33_1_bn/moving_mean", "shape": [256], "dtype": "float32"}, {"name": "conv4_block33_1_bn/moving_variance", "shape": [256], "dtype": "float32"}, {"name": "conv4_block33_1_conv/kernel", "shape": [1, 1, 1024, 256], "dtype": "float32"}, {"name": "conv4_block33_2_bn/gamma", "shape": [256], "dtype": "float32"}, {"name": "conv4_block33_2_bn/beta", "shape": [256], "dtype": "float32"}, {"name": "conv4_block33_2_bn/moving_mean", "shape": [256], "dtype": "float32"}, {"name": "conv4_block33_2_bn/moving_variance", "shape": [256], "dtype": "float32"}, {"name": "conv4_block33_2_conv/kernel", "shape": [3, 3, 256, 256], "dtype": "float32"}, {"name": "conv4_block33_3_conv/kernel", "shape": [1, 1, 256, 1024], "dtype": "float32"}, {"name": "conv4_block33_3_conv/bias", "shape": [1024], "dtype": "float32"}, {"name": "conv4_block33_preact_bn/gamma", "shape": [1024], "dtype": "float32"}, {"name": "conv4_block33_preact_bn/beta", "shape": [1024], "dtype": "float32"}, {"name": "conv4_block33_preact_bn/moving_mean", "shape": [1024], "dtype": "float32"}, {"name": "conv4_block33_preact_bn/moving_variance", "shape": [1024], "dtype": "float32"}, {"name": "conv4_block34_1_bn/gamma", "shape": [256], "dtype": "float32"}, {"name": "conv4_block34_1_bn/beta", "shape": [256], "dtype": "float32"}, {"name": "conv4_block34_1_bn/moving_mean", "shape": [256], "dtype": "float32"}, {"name": "conv4_block34_1_bn/moving_variance", "shape": [256], "dtype": "float32"}, {"name": "conv4_block34_1_conv/kernel", "shape": [1, 1, 1024, 256], "dtype": "float32"}, {"name": "conv4_block34_2_bn/gamma", "shape": [256], "dtype": "float32"}, {"name": "conv4_block34_2_bn/beta", "shape": [256], "dtype": "float32"}, {"name": "conv4_block34_2_bn/moving_mean", "shape": [256], "dtype": "float32"}, {"name": "conv4_block34_2_bn/moving_variance", "shape": [256], "dtype": "float32"}, {"name": "conv4_block34_2_conv/kernel", "shape": [3, 3, 256, 256], "dtype": "float32"}, {"name": "conv4_block34_3_conv/kernel", "shape": [1, 1, 256, 1024], "dtype": "float32"}, {"name": "conv4_block34_3_conv/bias", "shape": [1024], "dtype": "float32"}, {"name": "conv4_block34_preact_bn/gamma", "shape": [1024], "dtype": "float32"}, {"name": "conv4_block34_preact_bn/beta", "shape": [1024], "dtype": "float32"}, {"name": "conv4_block34_preact_bn/moving_mean", "shape": [1024], "dtype": "float32"}, {"name": "conv4_block34_preact_bn/moving_variance", "shape": [1024], "dtype": "float32"}, {"name": "conv4_block35_1_bn/gamma", "shape": [256], "dtype": "float32"}, {"name": "conv4_block35_1_bn/beta", "shape": [256], "dtype": "float32"}, {"name": "conv4_block35_1_bn/moving_mean", "shape": [256], "dtype": "float32"}, {"name": "conv4_block35_1_bn/moving_variance", "shape": [256], "dtype": "float32"}, {"name": "conv4_block35_1_conv/kernel", "shape": [1, 1, 1024, 256], "dtype": "float32"}, {"name": "conv4_block35_2_bn/gamma", "shape": [256], "dtype": "float32"}, {"name": "conv4_block35_2_bn/beta", "shape": [256], "dtype": "float32"}, {"name": "conv4_block35_2_bn/moving_mean", "shape": [256], "dtype": "float32"}, {"name": "conv4_block35_2_bn/moving_variance", "shape": [256], "dtype": "float32"}, {"name": "conv4_block35_2_conv/kernel", "shape": [3, 3, 256, 256], "dtype": "float32"}, {"name": "conv4_block35_3_conv/kernel", "shape": [1, 1, 256, 1024], "dtype": "float32"}, {"name": "conv4_block35_3_conv/bias", "shape": [1024], "dtype": "float32"}, {"name": "conv4_block35_preact_bn/gamma", "shape": [1024], "dtype": "float32"}, {"name": "conv4_block35_preact_bn/beta", "shape": [1024], "dtype": "float32"}, {"name": "conv4_block35_preact_bn/moving_mean", "shape": [1024], "dtype": "float32"}, {"name": "conv4_block35_preact_bn/moving_variance", "shape": [1024], "dtype": "float32"}, {"name": "conv4_block36_1_bn/gamma", "shape": [256], "dtype": "float32"}, {"name": "conv4_block36_1_bn/beta", "shape": [256], "dtype": "float32"}, {"name": "conv4_block36_1_bn/moving_mean", "shape": [256], "dtype": "float32"}, {"name": "conv4_block36_1_bn/moving_variance", "shape": [256], "dtype": "float32"}, {"name": "conv4_block36_1_conv/kernel", "shape": [1, 1, 1024, 256], "dtype": "float32"}, {"name": "conv4_block36_2_bn/gamma", "shape": [256], "dtype": "float32"}, {"name": "conv4_block36_2_bn/beta", "shape": [256], "dtype": "float32"}, {"name": "conv4_block36_2_bn/moving_mean", "shape": [256], "dtype": "float32"}, {"name": "conv4_block36_2_bn/moving_variance", "shape": [256], "dtype": "float32"}, {"name": "conv4_block36_2_conv/kernel", "shape": [3, 3, 256, 256], "dtype": "float32"}, {"name": "conv4_block36_3_conv/kernel", "shape": [1, 1, 256, 1024], "dtype": "float32"}, {"name": "conv4_block36_3_conv/bias", "shape": [1024], "dtype": "float32"}, {"name": "conv4_block36_preact_bn/gamma", "shape": [1024], "dtype": "float32"}, {"name": "conv4_block36_preact_bn/beta", "shape": [1024], "dtype": "float32"}, {"name": "conv4_block36_preact_bn/moving_mean", "shape": [1024], "dtype": "float32"}, {"name": "conv4_block36_preact_bn/moving_variance", "shape": [1024], "dtype": "float32"}, {"name": "conv4_block3_1_bn/gamma", "shape": [256], "dtype": "float32"}, {"name": "conv4_block3_1_bn/beta", "shape": [256], "dtype": "float32"}, {"name": "conv4_block3_1_bn/moving_mean", "shape": [256], "dtype": "float32"}, {"name": "conv4_block3_1_bn/moving_variance", "shape": [256], "dtype": "float32"}, {"name": "conv4_block3_1_conv/kernel", "shape": [1, 1, 1024, 256], "dtype": "float32"}, {"name": "conv4_block3_2_bn/gamma", "shape": [256], "dtype": "float32"}, {"name": "conv4_block3_2_bn/beta", "shape": [256], "dtype": "float32"}, {"name": "conv4_block3_2_bn/moving_mean", "shape": [256], "dtype": "float32"}, {"name": "conv4_block3_2_bn/moving_variance", "shape": [256], "dtype": "float32"}, {"name": "conv4_block3_2_conv/kernel", "shape": [3, 3, 256, 256], "dtype": "float32"}, {"name": "conv4_block3_3_conv/kernel", "shape": [1, 1, 256, 1024], "dtype": "float32"}, {"name": "conv4_block3_3_conv/bias", "shape": [1024], "dtype": "float32"}, {"name": "conv4_block3_preact_bn/gamma", "shape": [1024], "dtype": "float32"}, {"name": "conv4_block3_preact_bn/beta", "shape": [1024], "dtype": "float32"}, {"name": "conv4_block3_preact_bn/moving_mean", "shape": [1024], "dtype": "float32"}, {"name": "conv4_block3_preact_bn/moving_variance", "shape": [1024], "dtype": "float32"}, {"name": "conv4_block4_1_bn/gamma", "shape": [256], "dtype": "float32"}, {"name": "conv4_block4_1_bn/beta", "shape": [256], "dtype": "float32"}, {"name": "conv4_block4_1_bn/moving_mean", "shape": [256], "dtype": "float32"}, {"name": "conv4_block4_1_bn/moving_variance", "shape": [256], "dtype": "float32"}, {"name": "conv4_block4_1_conv/kernel", "shape": [1, 1, 1024, 256], "dtype": "float32"}, {"name": "conv4_block4_2_bn/gamma", "shape": [256], "dtype": "float32"}, {"name": "conv4_block4_2_bn/beta", "shape": [256], "dtype": "float32"}, {"name": "conv4_block4_2_bn/moving_mean", "shape": [256], "dtype": "float32"}, {"name": "conv4_block4_2_bn/moving_variance", "shape": [256], "dtype": "float32"}, {"name": "conv4_block4_2_conv/kernel", "shape": [3, 3, 256, 256], "dtype": "float32"}, {"name": "conv4_block4_3_conv/kernel", "shape": [1, 1, 256, 1024], "dtype": "float32"}, {"name": "conv4_block4_3_conv/bias", "shape": [1024], "dtype": "float32"}, {"name": "conv4_block4_preact_bn/gamma", "shape": [1024], "dtype": "float32"}, {"name": "conv4_block4_preact_bn/beta", "shape": [1024], "dtype": "float32"}, {"name": "conv4_block4_preact_bn/moving_mean", "shape": [1024], "dtype": "float32"}, {"name": "conv4_block4_preact_bn/moving_variance", "shape": [1024], "dtype": "float32"}, {"name": "conv4_block5_1_bn/gamma", "shape": [256], "dtype": "float32"}, {"name": "conv4_block5_1_bn/beta", "shape": [256], "dtype": "float32"}, {"name": "conv4_block5_1_bn/moving_mean", "shape": [256], "dtype": "float32"}, {"name": "conv4_block5_1_bn/moving_variance", "shape": [256], "dtype": "float32"}, {"name": "conv4_block5_1_conv/kernel", "shape": [1, 1, 1024, 256], "dtype": "float32"}, {"name": "conv4_block5_2_bn/gamma", "shape": [256], "dtype": "float32"}, {"name": "conv4_block5_2_bn/beta", "shape": [256], "dtype": "float32"}, {"name": "conv4_block5_2_bn/moving_mean", "shape": [256], "dtype": "float32"}, {"name": "conv4_block5_2_bn/moving_variance", "shape": [256], "dtype": "float32"}, {"name": "conv4_block5_2_conv/kernel", "shape": [3, 3, 256, 256], "dtype": "float32"}, {"name": "conv4_block5_3_conv/kernel", "shape": [1, 1, 256, 1024], "dtype": "float32"}, {"name": "conv4_block5_3_conv/bias", "shape": [1024], "dtype": "float32"}, {"name": "conv4_block5_preact_bn/gamma", "shape": [1024], "dtype": "float32"}, {"name": "conv4_block5_preact_bn/beta", "shape": [1024], "dtype": "float32"}, {"name": "conv4_block5_preact_bn/moving_mean", "shape": [1024], "dtype": "float32"}, {"name": "conv4_block5_preact_bn/moving_variance", "shape": [1024], "dtype": "float32"}, {"name": "conv4_block6_1_bn/gamma", "shape": [256], "dtype": "float32"}, {"name": "conv4_block6_1_bn/beta", "shape": [256], "dtype": "float32"}, {"name": "conv4_block6_1_bn/moving_mean", "shape": [256], "dtype": "float32"}, {"name": "conv4_block6_1_bn/moving_variance", "shape": [256], "dtype": "float32"}, {"name": "conv4_block6_1_conv/kernel", "shape": [1, 1, 1024, 256], "dtype": "float32"}, {"name": "conv4_block6_2_bn/gamma", "shape": [256], "dtype": "float32"}, {"name": "conv4_block6_2_bn/beta", "shape": [256], "dtype": "float32"}, {"name": "conv4_block6_2_bn/moving_mean", "shape": [256], "dtype": "float32"}, {"name": "conv4_block6_2_bn/moving_variance", "shape": [256], "dtype": "float32"}, {"name": "conv4_block6_2_conv/kernel", "shape": [3, 3, 256, 256], "dtype": "float32"}, {"name": "conv4_block6_3_conv/kernel", "shape": [1, 1, 256, 1024], "dtype": "float32"}, {"name": "conv4_block6_3_conv/bias", "shape": [1024], "dtype": "float32"}, {"name": "conv4_block6_preact_bn/gamma", "shape": [1024], "dtype": "float32"}, {"name": "conv4_block6_preact_bn/beta", "shape": [1024], "dtype": "float32"}, {"name": "conv4_block6_preact_bn/moving_mean", "shape": [1024], "dtype": "float32"}, {"name": "conv4_block6_preact_bn/moving_variance", "shape": [1024], "dtype": "float32"}, {"name": "conv4_block7_1_bn/gamma", "shape": [256], "dtype": "float32"}, {"name": "conv4_block7_1_bn/beta", "shape": [256], "dtype": "float32"}, {"name": "conv4_block7_1_bn/moving_mean", "shape": [256], "dtype": "float32"}, {"name": "conv4_block7_1_bn/moving_variance", "shape": [256], "dtype": "float32"}, {"name": "conv4_block7_1_conv/kernel", "shape": [1, 1, 1024, 256], "dtype": "float32"}, {"name": "conv4_block7_2_bn/gamma", "shape": [256], "dtype": "float32"}, {"name": "conv4_block7_2_bn/beta", "shape": [256], "dtype": "float32"}, {"name": "conv4_block7_2_bn/moving_mean", "shape": [256], "dtype": "float32"}, {"name": "conv4_block7_2_bn/moving_variance", "shape": [256], "dtype": "float32"}, {"name": "conv4_block7_2_conv/kernel", "shape": [3, 3, 256, 256], "dtype": "float32"}, {"name": "conv4_block7_3_conv/kernel", "shape": [1, 1, 256, 1024], "dtype": "float32"}, {"name": "conv4_block7_3_conv/bias", "shape": [1024], "dtype": "float32"}, {"name": "conv4_block7_preact_bn/gamma", "shape": [1024], "dtype": "float32"}, {"name": "conv4_block7_preact_bn/beta", "shape": [1024], "dtype": "float32"}, {"name": "conv4_block7_preact_bn/moving_mean", "shape": [1024], "dtype": "float32"}, {"name": "conv4_block7_preact_bn/moving_variance", "shape": [1024], "dtype": "float32"}, {"name": "conv4_block8_1_bn/gamma", "shape": [256], "dtype": "float32"}, {"name": "conv4_block8_1_bn/beta", "shape": [256], "dtype": "float32"}, {"name": "conv4_block8_1_bn/moving_mean", "shape": [256], "dtype": "float32"}, {"name": "conv4_block8_1_bn/moving_variance", "shape": [256], "dtype": "float32"}, {"name": "conv4_block8_1_conv/kernel", "shape": [1, 1, 1024, 256], "dtype": "float32"}, {"name": "conv4_block8_2_bn/gamma", "shape": [256], "dtype": "float32"}, {"name": "conv4_block8_2_bn/beta", "shape": [256], "dtype": "float32"}, {"name": "conv4_block8_2_bn/moving_mean", "shape": [256], "dtype": "float32"}, {"name": "conv4_block8_2_bn/moving_variance", "shape": [256], "dtype": "float32"}, {"name": "conv4_block8_2_conv/kernel", "shape": [3, 3, 256, 256], "dtype": "float32"}, {"name": "conv4_block8_3_conv/kernel", "shape": [1, 1, 256, 1024], "dtype": "float32"}, {"name": "conv4_block8_3_conv/bias", "shape": [1024], "dtype": "float32"}, {"name": "conv4_block8_preact_bn/gamma", "shape": [1024], "dtype": "float32"}, {"name": "conv4_block8_preact_bn/beta", "shape": [1024], "dtype": "float32"}, {"name": "conv4_block8_preact_bn/moving_mean", "shape": [1024], "dtype": "float32"}, {"name": "conv4_block8_preact_bn/moving_variance", "shape": [1024], "dtype": "float32"}, {"name": "conv4_block9_1_bn/gamma", "shape": [256], "dtype": "float32"}, {"name": "conv4_block9_1_bn/beta", "shape": [256], "dtype": "float32"}, {"name": "conv4_block9_1_bn/moving_mean", "shape": [256], "dtype": "float32"}, {"name": "conv4_block9_1_bn/moving_variance", "shape": [256], "dtype": "float32"}, {"name": "conv4_block9_1_conv/kernel", "shape": [1, 1, 1024, 256], "dtype": "float32"}, {"name": "conv4_block9_2_bn/gamma", "shape": [256], "dtype": "float32"}, {"name": "conv4_block9_2_bn/beta", "shape": [256], "dtype": "float32"}, {"name": "conv4_block9_2_bn/moving_mean", "shape": [256], "dtype": "float32"}, {"name": "conv4_block9_2_bn/moving_variance", "shape": [256], "dtype": "float32"}, {"name": "conv4_block9_2_conv/kernel", "shape": [3, 3, 256, 256], "dtype": "float32"}, {"name": "conv4_block9_3_conv/kernel", "shape": [1, 1, 256, 1024], "dtype": "float32"}, {"name": "conv4_block9_3_conv/bias", "shape": [1024], "dtype": "float32"}, {"name": "conv4_block9_preact_bn/gamma", "shape": [1024], "dtype": "float32"}, {"name": "conv4_block9_preact_bn/beta", "shape": [1024], "dtype": "float32"}, {"name": "conv4_block9_preact_bn/moving_mean", "shape": [1024], "dtype": "float32"}, {"name": "conv4_block9_preact_bn/moving_variance", "shape": [1024], "dtype": "float32"}, {"name": "conv5_block1_0_conv/kernel", "shape": [1, 1, 1024, 2048], "dtype": "float32"}, {"name": "conv5_block1_0_conv/bias", "shape": [2048], "dtype": "float32"}, {"name": "conv5_block1_1_bn/gamma", "shape": [512], "dtype": "float32"}, {"name": "conv5_block1_1_bn/beta", "shape": [512], "dtype": "float32"}, {"name": "conv5_block1_1_bn/moving_mean", "shape": [512], "dtype": "float32"}, {"name": "conv5_block1_1_bn/moving_variance", "shape": [512], "dtype": "float32"}, {"name": "conv5_block1_1_conv/kernel", "shape": [1, 1, 1024, 512], "dtype": "float32"}, {"name": "conv5_block1_2_bn/gamma", "shape": [512], "dtype": "float32"}, {"name": "conv5_block1_2_bn/beta", "shape": [512], "dtype": "float32"}, {"name": "conv5_block1_2_bn/moving_mean", "shape": [512], "dtype": "float32"}, {"name": "conv5_block1_2_bn/moving_variance", "shape": [512], "dtype": "float32"}, {"name": "conv5_block1_2_conv/kernel", "shape": [3, 3, 512, 512], "dtype": "float32"}, {"name": "conv5_block1_3_conv/kernel", "shape": [1, 1, 512, 2048], "dtype": "float32"}, {"name": "conv5_block1_3_conv/bias", "shape": [2048], "dtype": "float32"}, {"name": "conv5_block1_preact_bn/gamma", "shape": [1024], "dtype": "float32"}, {"name": "conv5_block1_preact_bn/beta", "shape": [1024], "dtype": "float32"}, {"name": "conv5_block1_preact_bn/moving_mean", "shape": [1024], "dtype": "float32"}, {"name": "conv5_block1_preact_bn/moving_variance", "shape": [1024], "dtype": "float32"}, {"name": "conv5_block2_1_bn/gamma", "shape": [512], "dtype": "float32"}, {"name": "conv5_block2_1_bn/beta", "shape": [512], "dtype": "float32"}, {"name": "conv5_block2_1_bn/moving_mean", "shape": [512], "dtype": "float32"}, {"name": "conv5_block2_1_bn/moving_variance", "shape": [512], "dtype": "float32"}, {"name": "conv5_block2_1_conv/kernel", "shape": [1, 1, 2048, 512], "dtype": "float32"}, {"name": "conv5_block2_2_bn/gamma", "shape": [512], "dtype": "float32"}, {"name": "conv5_block2_2_bn/beta", "shape": [512], "dtype": "float32"}, {"name": "conv5_block2_2_bn/moving_mean", "shape": [512], "dtype": "float32"}, {"name": "conv5_block2_2_bn/moving_variance", "shape": [512], "dtype": "float32"}, {"name": "conv5_block2_2_conv/kernel", "shape": [3, 3, 512, 512], "dtype": "float32"}, {"name": "conv5_block2_3_conv/kernel", "shape": [1, 1, 512, 2048], "dtype": "float32"}, {"name": "conv5_block2_3_conv/bias", "shape": [2048], "dtype": "float32"}, {"name": "conv5_block2_preact_bn/gamma", "shape": [2048], "dtype": "float32"}, {"name": "conv5_block2_preact_bn/beta", "shape": [2048], "dtype": "float32"}, {"name": "conv5_block2_preact_bn/moving_mean", "shape": [2048], "dtype": "float32"}, {"name": "conv5_block2_preact_bn/moving_variance", "shape": [2048], "dtype": "float32"}, {"name": "conv5_block3_1_bn/gamma", "shape": [512], "dtype": "float32"}, {"name": "conv5_block3_1_bn/beta", "shape": [512], "dtype": "float32"}, {"name": "conv5_block3_1_bn/moving_mean", "shape": [512], "dtype": "float32"}, {"name": "conv5_block3_1_bn/moving_variance", "shape": [512], "dtype": "float32"}, {"name": "conv5_block3_1_conv/kernel", "shape": [1, 1, 2048, 512], "dtype": "float32"}, {"name": "conv5_block3_2_bn/gamma", "shape": [512], "dtype": "float32"}, {"name": "conv5_block3_2_bn/beta", "shape": [512], "dtype": "float32"}, {"name": "conv5_block3_2_bn/moving_mean", "shape": [512], "dtype": "float32"}, {"name": "conv5_block3_2_bn/moving_variance", "shape": [512], "dtype": "float32"}, {"name": "conv5_block3_2_conv/kernel", "shape": [3, 3, 512, 512], "dtype": "float32"}, {"name": "conv5_block3_3_conv/kernel", "shape": [1, 1, 512, 2048], "dtype": "float32"}, {"name": "conv5_block3_3_conv/bias", "shape": [2048], "dtype": "float32"}, {"name": "conv5_block3_preact_bn/gamma", "shape": [2048], "dtype": "float32"}, {"name": "conv5_block3_preact_bn/beta", "shape": [2048], "dtype": "float32"}, {"name": "conv5_block3_preact_bn/moving_mean", "shape": [2048], "dtype": "float32"}, {"name": "conv5_block3_preact_bn/moving_variance", "shape": [2048], "dtype": "float32"}, {"name": "dense_13/kernel", "shape": [100352, 1024], "dtype": "float32"}, {"name": "dense_13/bias", "shape": [1024], "dtype": "float32"}, {"name": "dense_14/kernel", "shape": [1024, 256], "dtype": "float32"}, {"name": "dense_14/bias", "shape": [256], "dtype": "float32"}, {"name": "dense_15/kernel", "shape": [256, 128], "dtype": "float32"}, {"name": "dense_15/bias", "shape": [128], "dtype": "float32"}, {"name": "dense_16/kernel", "shape": [128, 64], "dtype": "float32"}, {"name": "dense_16/bias", "shape": [64], "dtype": "float32"}, {"name": "dense_17/kernel", "shape": [64, 16], "dtype": "float32"}, {"name": "dense_17/bias", "shape": [16], "dtype": "float32"}, {"name": "dense_18/kernel", "shape": [16, 4], "dtype": "float32"}, {"name": "dense_18/bias", "shape": [4], "dtype": "float32"}, {"name": "dense_19/kernel", "shape": [4, 2], "dtype": "float32"}, {"name": "dense_19/bias", "shape": [2], "dtype": "float32"}, {"name": "post_bn/gamma", "shape": [2048], "dtype": "float32"}, {"name": "post_bn/beta", "shape": [2048], "dtype": "float32"}, {"name": "post_bn/moving_mean", "shape": [2048], "dtype": "float32"}, {"name": "post_bn/moving_variance", "shape": [2048], "dtype": "float32"}]}]}